Lab7_Axel_Dumont/code/part1/model_lstm.pth.tar (torch, 621846 bytes, 18 tensors)

embedding.weight f4 [11, 128]
000000 eb f7 63 3e 8e 77 91 bd 17 71 0d bf 77 5e c1 3f
       0.22262542 -0.07102881 -0.55250686 1.5106953
000010 2a f5 92 3e 4c 78 cb 3e fe 38 c1 be d3 cb 02 3f
       0.2870267 0.39740217 -0.37738794 0.5109226
000020 4e 68 2c bf 26 49 1e 3f 44 b1 a3 3e 0f 8d 8e bf
       -0.67346656 0.61830366 0.3197118 -1.1136798
000030 b6 34 73 3e 1c cd b1 3e 2a a4 bb 3f 18 f4 99 bd
       0.23750576 0.347268 1.4659474 -0.0751726
000040 0d ec 67 be b2 34 33 3f c0 e1 49 3e e4 19 df bf
       -0.2264864 0.7000228 0.19715023 -1.7429776
000050 1c ea 62 3f 4d 37 f7 be 71 93 69 3f 5b 15 af 3f
       0.8863847 -0.4828438 0.912406 1.3678392
000060 0a bf 8f be 86 99 bd be 8f 76 59 bf 10 97 f7 3d
       -0.2807544 -0.37031192 -0.8494653 0.1208936
000070 9c 06 ce 3b 4b 61 c7 bf 90 d1 c6 3d fd 8e ee 3d
       0.006287409 -1.5576566 0.097079396 0.116483666
000080 0e ca 54 3f cb 29 aa bf 70 a0 a7 3f 93 e4 10 3e
       0.8312081 -1.3294004 1.3095837 0.14149694
000090 11 55 74 bf 45 84 16 c0 0e c6 8c bf 47 d6 0f 3e
       -0.954423 -2.351823 -1.0997941 0.14046584
0000a0 d5 32 55 3f 68 55 c5 be ff 28 c8 be 74 fe fa 3e
       0.8328069 -0.38541722 -0.39093778 0.49022257
0000b0 4c bc 75 3f 85 f9 84 bf 0b d8 d0 3f 72 bd 05 c0
       0.95990443 -1.0388647 1.6315931 -2.0896878
0000c0 3d 93 55 bf 7a cc fd be cc 3b ef be e3 c1 e4 3e
       -0.8342779 -0.49570066 -0.4672531 0.44679174
0000d0 82 4e 1d bf b5 86 cc 3f e4 19 a4 bd a3 8f f9 be
       -0.6144792 1.5978609 -0.08012751 -0.487424
0000e0 73 6a 56 bf 8a d1 c8 3f bc 31 9c be bb 12 52 bf
       -0.8375618 1.5688946 -0.30506694 -0.8205983
0000f0 bd 6f 92 3d 2c a2 af 3f 69 68 b5 3e 15 bd c1 3c
       0.07150219 1.3721366 0.3543122 0.023649732
000100 de ec b9 be 91 bd a9 3f 7d ca 0a be 07 40 df bf
       -0.36313528 1.3260976 -0.13553806 -1.7441415
000110 d0 cb 15 40 08 f6 52 3e 41 94 cd 3e 1a 16 de 3e
       2.3405647 0.20601666 0.4015217 0.43376237
000120 c9 30 37 3f 37 f9 8f bf 9a 16 72 bf fa cc 94 3e
       0.71558815 -1.1247929 -0.9456574 0.29062635
000130 ba ec 01 40 7f 90 ab bf c0 d6 d6 bf 5c 73 a8 3e
       2.0300736 -1.3403472 -1.6784286 0.32900512
000140 c5 ef dc 3f 95 b6 db 3f 46 64 50 bf bf af ab bf
       1.7260672 1.7165095 -0.81403005 -1.3413008
000150 ee 3c c8 bf 51 98 32 3f da 7b 71 bd 5b d7 c2 bf
       -1.5643594 0.69763666 -0.058956005 -1.5221971
000160 24 ae 1b 3f e6 da 15 3e ea 58 fc 3f 36 68 1b c0
       0.6081259 0.14634284 1.9714634 -2.4282355
000170 1a 8f c9 3e 10 4f cf 3e c9 38 82 bd b1 a0 50 3f
       0.3936699 0.40490007 -0.06358487 0.81495196
000180 ff 4d 97 3f 93 06 88 bf 25 66 13 bf 8a 68 d4 be
       1.1820678 -1.0627006 -0.57577735 -0.41486007
000190 f4 5f 34 be 16 68 5d 3d 9f 24 c6 3f 4f a9 42 be
       -0.17614728 0.054054342 1.5479926 -0.19009899
0001a0 1a e4 88 3f 6b e4 86 bf 87 65 18 3f 7a 35 71 bf
       1.0694611 -1.0538458 0.5952992 -0.94222224
0001b0 51 3a 8f 3f c2 54 94 bf 4a c9 49 bf 98 c7 37 3f
       1.1189672 -1.1588366 -0.7882277 0.7178893
0001c0 5f 39 f2 3e bc e4 c1 bf 7a 0e 79 bf c4 bd c2 3e
       0.47309396 -1.5147929 -0.97287714 0.38035405
0001d0 74 fd 9f bf 9e b5 62 bf 7f c7 50 bf 8b 57 00 bf
       -1.2499223 -0.88558376 -0.81554407 -0.5013358
0001e0 06 6f 0a 3f 5c 10 86 3f 13 f4 0b 3e 28 3a 1d bc
       0.5407566 1.0473742 0.13667326 -0.009596385
0001f0 6c 08 f7 bc 0a 87 eb 3f 5d 0d 21 bf 24 be 2a 3f
       -0.030155383 1.8400586 -0.62911016 0.6669638
000200 de 9c 87 bf bf f0 22 bf ef 5a b3 be 72 6e d8 3f
       -1.0594747 -0.636486 -0.35030314 1.6908705
000210 6c 6b 87 3e 5f dc d5 be 1e d2 80 be d3 09 f0 be
       0.26449144 -0.41769692 -0.25160307 -0.46882495
000220 ed a6 94 3e 96 35 06 3e cb a7 83 bf 0b 53 92 3f
       0.29033604 0.13106379 -1.0285581 1.1431593
000230 71 39 bf bf cb c5 12 bf 65 8d 6d 3f 06 ca 8a be
       -1.4939405 -0.5733306 0.92793876 -0.27107257
000240 d9 79 ec be cd df a9 3f cc a6 62 bf 35 0b 1f c0
       -0.46186712 1.3271424 -0.8853576 -2.485059
000250 0b 82 45 3e 0e c2 00 bf 5f 48 2a bf 43 a8 c1 3f
       0.19287889 -0.50296104 -0.6651668 1.5129474
000260 b5 5c a2 be ff a9 2e bf e7 a4 59 3f 94 64 8e bf
       -0.31711355 -0.68228143 0.85017246 -1.1124444
000270 b7 53 b2 bd fa b8 08 bf 02 b3 92 3f c8 81 98 be
       -0.087073736 -0.5340725 1.1460879 -0.29786515
000280 2f 3c b2 3d 8e b0 b9 be 96 74 01 be 6c 74 fa 3f
       0.08702885 -0.36267513 -0.1264213 1.9566779
000290 2b 69 65 3f 3b 19 d3 3f 6c f1 0d bf 87 dc b9 3f
       0.896136 1.6492075 -0.55446506 1.4520425
0002a0 47 dc 4e 3e c3 34 11 3d d5 dc 5f bf 72 17 69 be
       0.20201217 0.035450708 -0.8744634 -0.2276285
0002b0 db 4b e4 3f ee 52 05 c0 f5 40 24 bf f1 c7 1e 3f
       1.7835649 -2.0831866 -0.64161617 0.62023836
0002c0 a1 a2 a1 be 5a 67 5a be 2e bb 49 bf 80 5d ee 3d
       -0.31569389 -0.21328488 -0.7880124 0.116389275
0002d0 83 7c 0d bf 2a 17 45 bf b1 90 e7 bf 3b 97 85 bf
       -0.55268115 -0.7698847 -1.8091031 -1.0436777
0002e0 2e 38 44 3e b5 c2 7a 3f b6 78 80 3e f6 6a da be
       0.19162056 0.9795335 0.25092095 -0.4265973
0002f0 d4 1f ae 3e 44 35 da be 43 86 1f 3f d9 bd a9 3f
       0.34008658 -0.42618763 0.6231424 1.3261062
000300 5f 72 b9 be 62 06 c4 be f1 2e 6f 3e 90 ea ef 3e
       -0.3622007 -0.3828612 0.2335775 0.46858644
000310 a1 ee a4 bf 37 66 d9 3e 7d 23 b2 bf 16 d5 a6 3f
       -1.2885324 0.42460796 -1.391708 1.3033779
000320 2c 9c ae bf 9c 2b 72 3f a9 10 c1 bf 6e a4 fb be
       -1.364141 0.9459779 -1.5083209 -0.49148887
000330 c4 aa d3 3f 0d 7e a5 3e 87 d4 52 3f 55 a8 e8 3e
       1.6536489 0.32322732 0.8235554 0.45440927
000340 ee 20 88 bf 56 01 c1 3d 55 de bf 3e e2 35 10 bf
       -1.0635049 0.09424083 0.37474313 -0.5633222
000350 49 ce c3 bf 17 7f 86 bc a0 1c 35 3d 6d ad 0d be
       -1.5297328 -0.016418023 0.044216752 -0.13835688
000360 ca 07 9b 3e d8 7e 5d 3e 69 9c a7 bf 17 d5 8a bf
       0.3027938 0.21630418 -1.3094608 -1.084628
000370 a6 3a 84 bf b5 ce b5 3f d6 c5 a0 3d a7 cf 07 bf
       -1.0330398 1.4203707 0.07850234 -0.5305123
000380 10 a2 f0 be f3 0a 41 3f 89 69 9f 3e 7b 16 ab bf
       -0.46998644 0.7540733 0.31135204 -1.3366235
000390 34 93 39 be 0b 94 4c 3f d4 30 2a 3f 1c ec 22 3f
       -0.1812256 0.79913396 0.66480756 0.63641524
0003a0 a1 54 2f 3e e0 2a ab 3e 13 54 9d 3f 8b b7 07 3f
       0.17122127 0.3343115 1.2291282 0.5301444
0003b0 52 bb 26 3f e2 29 7d 3f aa 35 e2 bf 0c 7b 3f bf
       0.6512958 0.98892033 -1.7672627 -0.7479713
0003c0 21 a1 8f be 52 21 93 bf 15 c0 e6 be 59 4c ad 3f
       -0.2805262 -1.1494544 -0.45068422 1.3538924
0003d0 95 34 e8 3e 53 ac ed be fd 97 c7 be b7 9c e0 bd
       0.45352617 -0.46420535 -0.38983145 -0.10967391
0003e0 50 7c 90 3f 02 6f fe be 37 ed 9c 3f bb a4 a0 3f
       1.1287937 -0.49694067 1.2259892 1.2550272
0003f0 ab be 26 3f c1 88 64 bf be 59 1a 3f 7c e2 a4 3e
       0.65134686 -0.8927117 0.60293186 0.32204044

lstm.weight_ih_l0 f4 [256, 128]
000000 ea 03 6e bc 46 61 af 3e c4 54 1d bd bd 9f 8e bd
       -0.0145273 0.342539 -0.038410917 -0.069640614
000010 19 bf a4 bd 34 f0 8a 3d 8c f6 6a be bc 11 26 3d
       -0.080442615 0.06784096 -0.22945613 0.040544257
000020 6c cb 3d bd 02 0b c8 bd 7b 3f 14 be 38 24 ba bd
       -0.046336576 -0.097677246 -0.14477341 -0.090889394
000030 fc 09 42 3d 82 59 22 3d c7 8f 23 be 3b 78 60 bd
       0.047372803 0.039636143 -0.15972815 -0.05480216
000040 bd cf 6d bb 65 b9 23 3c 2d 06 8b 3d 97 5b bf 3d
       -0.0036287152 0.009992932 0.06788287 0.09343641
000050 2a 73 b2 bd 37 71 7a 3d 66 b0 56 3c a4 82 5a 3d
       -0.08713372 0.061143126 0.01310358 0.053347245
000060 38 21 81 3d 27 33 8b 3d c6 15 c1 3d 0b 98 ac bd
       0.06305164 0.06796866 0.09427981 -0.084274374
000070 75 2d 81 3c e4 46 c6 3c 4f 1b b6 3d cc 0e 1a be
       0.015768746 0.024203725 0.088919275 -0.15044707
000080 7c 1d 21 be 1f 88 bb 3d 8f f2 90 bd 47 1e 14 be
       -0.15733904 0.091568224 -0.070775144 -0.14464675
000090 f6 78 ec 3c 29 f6 33 3e 58 fc d1 3d 30 43 1c 3d
       0.028866272 0.17574371 0.10253209 0.038150012
0000a0 20 9c 7a bd 85 cc ca 3d 9f e0 98 3d 0d 7a e6 bd
       -0.06118405 0.0990229 0.07464718 -0.11253748
0000b0 09 bc 4c be 8d 8a 1a 3e cb bb f4 3d 4f ad 15 bd
       -0.19993605 0.15091915 0.11949881 -0.036542233
0000c0 ef 5b e8 3c 36 aa 74 3d cc 40 4c 3e 42 84 66 3d
       0.02836415 0.05973264 0.19946593 0.056278475
0000d0 62 8d 3e 3d 5f da 32 be fe 89 7b 3d 8e 17 cc 3c
       0.046521552 -0.17466114 0.061410896 0.024913576
0000e0 14 a2 f0 3d 42 26 aa bd f5 04 3c 3e 76 a7 aa 3d
       0.11749664 -0.08308078 0.18361266 0.08332722
0000f0 14 3a 30 be 9d c2 a2 3d b9 d4 b0 3d db 4b aa 3d
       -0.17209655 0.07947276 0.086343236 0.083152495
000100 c6 d6 89 bd 25 29 cc bd c0 12 9c 3d bb 0a 01 3d
       -0.06730418 -0.09968785 0.07620764 0.031504374
000110 ba 5e ef bd c5 a7 6c bc 6d 58 94 3d a8 fa 96 3d
       -0.116879895 -0.014444296 0.072434284 0.07372028
000120 27 f0 61 bc bb 7f f0 bc f9 86 09 3e a1 e6 ab 3d
       -0.013790167 -0.029357782 0.13430394 0.08393598
000130 f4 38 c3 3c d4 29 80 3d ce bf 11 be 72 85 83 3d
       0.023830868 0.06257978 -0.14233324 0.06421937
000140 10 f7 a5 3d ea 86 23 be 60 fc e2 3d 18 e6 1b 3d
       0.08103764 -0.15969434 0.11083293 0.03806123
000150 24 96 8c 3e 08 e0 b7 3d cf 27 39 be a8 b7 ce 3d
       0.27458298 0.089782774 -0.18081592 0.100936234
000160 da 5b 24 3d b2 22 05 be 9a 72 98 3d d1 a1 76 bd
       0.04012666 -0.13001516 0.074437335 -0.060212914
000170 45 68 db bb ef 15 78 be 61 a9 2a 3c d7 70 24 bc
       -0.0066957795 -0.24227117 0.01041636 -0.010036669
000180 60 a4 97 bd 10 2b 14 bd f9 ea 0a be 75 a3 85 3d
       -0.07404399 -0.03617388 -0.13566197 0.065253176
000190 8f 6d 3e 3b f5 6e fe 3d f6 4f 08 be e3 b4 c0 bd
       0.0029057001 0.12423507 -0.13311753 -0.094095014
0001a0 55 4d 1e be 27 2a 35 3d fb 49 a2 bd b0 4e 0f be
       -0.15459187 0.044229653 -0.07924267 -0.1399486
0001b0 77 84 28 bd 0c fe 95 bc 75 30 48 3e 37 4e 76 3c
       -0.041141953 -0.018309616 0.19549735 0.015033296
0001c0 d9 49 9c 3d 9d 2f 90 3d cc ce 85 3d 33 d2 eb bd
       0.07631273 0.070403315 0.06533584 -0.11514702
0001d0 c3 c7 42 3e 72 99 4d bc d2 78 a6 3d 86 57 0d 3e
       0.19021516 -0.012548791 0.081285134 0.13802919
0001e0 7c 31 c1 3d 2d a5 fd 3d 65 f6 da 3b 52 19 49 be
       0.094332665 0.123850204 0.0066822045 -0.19638565
0001f0 91 87 ee bd 04 87 f3 bd 10 a9 da bc 0a 6e f6 bd
       -0.11646951 -0.118909866 -0.026691943 -0.12032707
000200 da c4 a9 3c 23 81 28 be 74 3b 8c 3d af 5c 64 3d
       0.020723749 -0.16455512 0.06847277 0.055752452
000210 37 64 91 3d a5 d8 d4 bd 87 91 e2 bd da dc d4 bd
       0.070991926 -0.10392884 -0.110629134 -0.103936866
000220 e0 03 10 3e e1 c6 e2 3d b6 e9 89 3c 0d e4 99 3d
       0.14063978 0.110730894 0.016835075 0.075142
000230 dd 5a 38 be 2c 32 03 be 06 54 49 bc 77 3d 56 3e
       -0.18003412 -0.12812108 -0.012288099 0.20921884
000240 5b f6 31 be 4b 05 6c 3e 9e 6e ba be 3e 35 c8 be
       -0.17379133 0.23048894 -0.3641252 -0.3910312
000250 6d 01 b6 bd 3b c7 72 bd 67 bb 42 bb 77 3c ce 3d
       -0.08886991 -0.059272032 -0.0029713751 0.100701265
000260 13 31 b8 3c a6 cf 48 bc d1 86 3d 3d 67 db 80 bd
       0.022484338 -0.0122565385 0.04627115 -0.06291848
000270 c7 cb 2b 3c bf 3d 1e 3e a4 63 ef 3d 9d a1 85 bd
       0.010485596 0.15453242 0.11688927 -0.06524966
000280 84 f9 91 3d 78 d4 cb 3d 14 44 5e bd ff 35 50 bd
       0.071276695 0.099526346 -0.054264143 -0.050832745
000290 ea 41 3f 3e 5c df a0 3d 46 82 a2 bd 3c e8 83 3c
       0.18677488 0.078551024 -0.07935004 0.016101949
0002a0 86 2d 62 3e 82 fc c8 3d 7d 67 cc 3d da f9 75 3d
       0.22087678 0.09813787 0.09980676 0.06005273
0002b0 3e ef b4 3e 6c b4 14 be 51 1a 97 3d 93 8d e3 3c
       0.35338777 -0.1452195 0.07378066 0.027777469
0002c0 8c 74 7d 3e 81 24 04 bd 9e 42 8b bd 78 90 5a 3d
       0.2475149 -0.032261375 -0.067998156 0.053360432
0002d0 7a 30 68 3d 93 c9 82 bd 48 f5 cf bc ae 33 be bd
       0.056686856 -0.063861035 -0.025385514 -0.09287201
0002e0 bb f8 58 be e6 a9 5a 3d 2a 2b 41 be 5f cd 98 bd
       -0.21188633 0.053384684 -0.18864122 -0.074610464
0002f0 5c 99 e5 3d 6b 4e 89 bd 2c 2b 2b bd e6 e9 1a 3e
       0.112108916 -0.0670441 -0.04178922 0.15128288
000300 08 0b 51 3d 51 9d 6d be 74 43 ac 3c 44 8d 03 be
       0.05103591 -0.23204543 0.021028258 -0.12846857
000310 73 d6 25 bc f5 03 2b 3e 5e f4 09 be 87 3c b0 3d
       -0.010121929 0.16700728 -0.13472125 0.08605295
000320 0d dd 26 3d 28 0c 4b 3d 38 4b 85 be fc 9b 0b be
       0.040738154 0.04957214 -0.2603395 -0.13633722
000330 f1 2c 58 3c 1f 92 98 bd cc 9f c9 3a 63 61 42 3d
       0.013194309 -0.074497454 0.0015382706 0.047456156
000340 f2 32 3a 3e 73 e0 10 be 85 65 96 3c 49 c9 4a be
       0.18183497 -0.1414812 0.018358955 -0.19803347
000350 76 35 0c be a3 52 41 3c 8c 2a d1 3d 26 cb 59 be
       -0.13692269 0.011799487 0.10213193 -0.21268901
000360 dc 00 ce bd 0a db 1b 3c 8b 58 c1 bd d6 62 0c 3e
       -0.10058758 0.009512672 -0.09440716 0.13709578
000370 ef bf a5 bd e7 ae 38 3e 17 f7 c4 3d a5 6e e0 3d
       -0.08093249 0.1803547 0.09617441 0.10958604
000380 5c 97 9f 3d ee 4f 82 3d 4a f2 0f 3e 69 91 e2 bd
       0.077925414 0.06362902 0.1405727 -0.11062891
000390 85 36 f3 bd 99 37 b9 3d 65 0a 72 3d 9b e2 e9 3c
       -0.11875633 0.090438075 0.059091944 0.028550437
0003a0 1e b7 56 bd f0 81 71 bd d7 b4 8b 3c 05 2f 00 bc
       -0.052420728 -0.05896181 0.017054005 -0.00782371
0003b0 bf 7b b8 3d a9 be d5 bd c1 ba 07 3e 8b f7 64 be
       0.09007978 -0.10436756 0.13254835 -0.22360055
0003c0 d3 66 82 3d 8b e7 d5 bd 40 dd 81 bd 23 7e de bb
       0.063672684 -0.10444554 -0.06341028 -0.006789939
0003d0 c6 89 f6 3c 8b 71 0a bd 67 ba 3c be 5e 32 82 bd
       0.030094992 -0.03379969 -0.18430482 -0.06357263
0003e0 e2 64 44 3e 42 5a 4d 3e a1 aa 53 3e 60 a4 88 bd
       0.19179109 0.20053962 0.20670559 -0.06671977
0003f0 ba c9 c6 3d 2d 42 14 3d 67 be 1f 3e 02 a9 45 3e
       0.09706445 0.036195923 0.15599976 0.19302753

lstm.weight_hh_l0 f4 [256, 64]
000000 7d 36 89 3c 1f d6 73 3c 89 c4 cb 3d 06 99 62 bd
       0.016749615 0.014882593 0.099495955 -0.055321716
000010 fc 28 25 3e 8b 9d 73 3e d9 51 47 3e 24 da 12 be
       0.16128916 0.23790567 0.19464816 -0.14341027
000020 3e 53 08 3f 20 bf 26 3e 80 c5 b1 bd 4f a6 14 be
       0.5325202 0.16283846 -0.08680248 -0.14516567
000030 d6 bc c9 3c 20 5c 89 be 09 ec d6 bd 8e 25 12 3d
       0.024626177 -0.26828098 -0.10494239 0.035680346
000040 14 cf 03 3c 45 4a 28 be e4 e4 49 3e b8 7d 4e 3d
       0.008044977 -0.16434582 0.19716221 0.050412863
000050 11 12 e5 3d 09 eb 9d 3d 40 b9 8a 3d a8 a1 c4 bc
       0.111850865 0.07710845 0.06773615 -0.024002865
000060 87 24 8a 3c a6 b1 0e 3e d5 22 e6 bd 5b 20 62 bd
       0.01686312 0.13934955 -0.112371124 -0.055206638
000070 ee 65 24 3f a8 3f bc 3d 87 76 8c 3d 09 c3 38 3d
       0.6421803 0.09191829 0.06858545 0.045107875
000080 3d bb be bd 2a 66 a5 3c 8b 59 ec 3d ed e0 71 bd
       -0.093130566 0.020190317 0.115405165 -0.059052397
000090 83 98 d5 3d 1c 01 85 bd 36 8b d3 3d a6 a0 7b ba
       0.1042948 -0.06494352 0.10329287 -0.00095988286
0000a0 84 0f 0e 3d f1 a4 11 3e ed 9b b9 bc ad 40 b0 bc
       0.034682766 0.14223076 -0.022657359 -0.021515215
0000b0 96 75 15 be 70 d0 23 bd 97 f0 b9 3d 16 8b 85 3d
       -0.14595637 -0.039993703 0.09079092 0.06520669
0000c0 2b b5 35 bd a4 a3 78 bd 4d f1 23 3b ad 84 99 3d
       -0.04436223 -0.060702935 0.0025015653 0.07496009
0000d0 46 df ed bd 1e 83 44 3d 50 1b cf 3c 0f c8 64 3b
       -0.11614852 0.047976606 0.025281578 0.0034909283
0000e0 df 45 b6 bd ca b2 53 3e 92 a7 69 3d 8e 73 7a 3c
       -0.089000456 0.20673671 0.057044573 0.015286339
0000f0 77 95 dc 3c 16 28 2e be d7 d4 98 bc d5 e3 89 3c
       0.02692674 -0.17007479 -0.018656177 0.016832272
000100 c9 a8 b4 3c f5 3e 59 bd 8f c9 f4 3d 1d e0 14 3e
       0.02205314 -0.053038556 0.11952507 0.14538617
000110 f3 b6 96 be ad 8e 96 bb 72 74 ef 3c 13 2b a7 3d
       -0.29436454 -0.004594645 0.02923033 0.08162513
000120 00 71 21 3e 3f de 99 3e 61 74 64 3e 62 20 9e 3e
       0.15765762 0.30052373 0.2231002 0.3088408
000130 ed 32 6c 3e 12 f1 a3 be f8 fa 3b 3d 32 e5 20 3e
       0.23066302 -0.3201986 0.04589364 0.15712431
000140 a7 a4 08 3e 64 4b 19 3d 4d 50 c8 bd 06 e8 7a 3e
       0.1334406 0.037425414 -0.09780941 0.24502572
000150 9f f7 be 3d b7 aa e1 bd 7e e0 84 3d a8 61 92 3d
       0.09324574 -0.110188894 0.06488131 0.07147533
000160 09 ad cf 3d 75 da 07 bd 9b e6 92 3d 09 63 c5 3d
       0.10140426 -0.03316732 0.07172891 0.0963803
000170 e4 b4 85 3e da 02 64 3e 83 29 a3 bd ea 20 6a bd
       0.2611457 0.22266713 -0.07966902 -0.057160296
000180 5e 59 ae bc ef ab 03 bb be 5f cd 3b d8 ff 08 3d
       -0.021282848 -0.0020091494 0.006267517 0.033447117
000190 78 e1 5d 3d 70 27 4b be ef 4d ae be 9c a0 17 3e
       0.054170102 -0.19839263 -0.34043834 0.14807361
0001a0 36 62 5f be e0 48 a8 bb 94 78 bc 3d 54 08 73 bd
       -0.21814808 -0.0051356405 0.09202686 -0.059334114
0001b0 ec 2b b0 3e f4 a0 81 3e 12 31 89 bd f4 55 02 3d
       0.3440851 0.2531811 -0.066988125 0.031820253
0001c0 d4 76 ba 3d e2 b1 97 3d 2a 70 b7 3d 15 2b a1 bd
       0.09104696 0.07406975 0.089569405 -0.07869545
0001d0 41 8b 4a 3e 3f 62 be 3c 53 a3 e5 3c a9 4e 27 bd
       0.19779684 0.023240207 0.02803198 -0.0408465
0001e0 05 54 58 be c0 5c 1a 3e 60 7c f3 3d d2 a2 07 be
       -0.21125801 0.15074444 0.11888957 -0.13245705
0001f0 49 73 1d 3c d7 5d d0 bc 42 c7 ab 3d f9 02 78 bd
       0.009610006 -0.025435371 0.08387615 -0.06054971
000200 ab 4a d8 3d 54 73 c7 bd 77 48 6a 3d cf 70 ee bd
       0.10561117 -0.09738794 0.057198014 -0.1164261
000210 97 12 76 3c 57 bc 43 be 48 54 44 3e e9 c6 ae bc
       0.015019081 -0.19114815 0.19172776 -0.021335082
000220 ba 8a 20 be 19 e8 32 bd bf f0 32 3d ae 37 62 bd
       -0.1567792 -0.043678377 0.043686625 -0.05522888
000230 21 90 87 3d 57 e5 0b be f5 b2 dd bd 9f 66 0d 3d
       0.06619287 -0.13661705 -0.10825149 0.034521695
000240 d7 08 f5 ba fc 7d 01 be 63 32 a2 3d 33 69 4a 3d
       -0.0018694651 -0.12645715 0.07919767 0.049416732
000250 ca 22 42 be a2 57 a5 3d c0 25 8f 3d 84 63 60 bd
       -0.18958583 0.08073355 0.06989622 -0.054782405
000260 14 f8 ab 3c ba ab 34 3d 68 d2 75 bd 62 63 ae bd
       0.020992316 0.044109084 -0.060015112 -0.085150495
000270 81 ae 2d bd ea 13 0c be db f2 f8 3d 99 f7 b5 bd
       -0.042402748 -0.13679472 0.12155696 -0.08885116
000280 1e 55 62 be df 4d 5e bd 89 3e 44 be 6a 56 1d be
       -0.22102782 -0.054273482 -0.1916448 -0.15364996
000290 32 46 9b 3d 53 23 04 3e 45 cc 35 3e e5 f6 92 bd
       0.07581748 0.129041 0.17753704 -0.07175998
0002a0 80 e7 c4 3d 11 32 fd 3d 68 99 17 3e 41 00 0f 3e
       0.096144676 0.12363065 0.14804614 0.1396494
0002b0 d6 9e 25 be 7c 04 bd bd fb f0 9a 3e 56 23 50 bd
       -0.16173872 -0.09229371 0.30261979 -0.05081495
0002c0 94 ae 91 3d ec 8e 98 3e 0f 72 c4 3d c3 b3 b9 bd
       0.07113376 0.2979654 0.095920675 -0.0906749
0002d0 78 88 a9 3d b0 11 85 3e 54 87 77 3d a0 08 85 3d
       0.082779825 0.25990057 0.060431793 0.06495786
0002e0 d6 81 72 be d6 b8 cc 3e 19 33 f4 bc 33 8c e8 3d
       -0.23682341 0.3998477 -0.029809522 0.11354866
0002f0 92 25 a1 be 04 67 62 be 61 a8 82 3e e2 25 9b 3d
       -0.31473976 -0.2210961 0.25519088 0.07575585
000300 f9 4a b2 3d f2 14 95 3d 78 a4 87 3d 21 dc 7b bd
       0.08705706 0.072793856 0.06623167 -0.06148923
000310 6d 19 df 3d a3 c0 bd 3e 6f 4c 0e 3d b0 ba 07 be
       0.108935215 0.37061033 0.03474086 -0.1325481
000320 91 e8 dc 3e 4e c1 89 3e 7d 8b 93 3d b2 6e 98 bd
       0.43146184 0.26905292 0.0720434 -0.074429885
000330 2e d6 ca 3d e0 9a ef be 36 6e e9 bc de c3 4f 3e
       0.09904133 -0.46797848 -0.028494935 0.20289561
000340 ce 72 08 be 7d 0b 63 bd fb 75 95 3c 92 0a 5d 3d
       -0.13325045 -0.055430878 0.018244734 0.05396516
000350 05 90 99 3d 7c 41 f5 3d 8a ad 37 3d 49 e2 a2 bd
       0.07498173 0.11975381 0.044843234 -0.07953317
000360 7b 0c 97 3b c5 99 e9 bc 15 53 61 bd 95 27 83 3d
       0.004609642 -0.028515706 -0.055010874 0.06404034
000370 54 6e 21 3f 1d 7f b0 3d 76 7f ef bc 51 93 a2 3d
       0.6305897 0.08617995 -0.029235583 0.079382546
000380 ef dc 97 3d 0e dd 4b bd c8 61 b3 3c 12 f6 32 be
       0.074151866 -0.04977136 0.021897212 -0.17476681
000390 94 2d 1e bd 88 97 08 3e 67 9b 26 3e 3b 9a 81 bd
       -0.038617685 0.13339055 0.16270219 -0.06328245
0003a0 12 c0 90 bb 59 68 11 3e 46 23 dd 3c 2e 02 ed 3d
       -0.004417428 0.14199962 0.026994359 0.11572681
0003b0 85 82 e1 bd ff 15 ea bd 4f 48 74 3d 6b e0 9b 3c
       -0.11011223 -0.11429977 0.05963927 0.01902791
0003c0 94 94 83 3c a2 0b 46 3d 9f f3 47 3d 43 22 fd bc
       0.016062059 0.048350938 0.04881632 -0.030900126
0003d0 4c 72 f6 bd 61 76 06 be 7c 88 0b bd b2 52 6d 3d
       -0.12033519 -0.13131095 -0.03406571 0.057940193
0003e0 69 a8 13 be f0 6e 0c 3e ef f0 c1 bd 23 24 62 3e
       -0.14419712 0.13714194 -0.094697826 0.22084098
0003f0 0e 58 af bd 55 a0 a2 bc 20 b9 2a bd bb 1a 9e bc
       -0.08561717 -0.019851843 -0.041680455 -0.019299855

lstm.bias_ih_l0 f4 [256]
000000 58 a9 07 3d 19 50 73 3e c5 a3 21 bd 79 e5 db bd
       0.033120483 0.23761024 -0.039462823 -0.10737128
000010 ee 01 ca 3d 6a bb 53 3d 40 c5 21 be 61 e8 8b bd
       0.09863649 0.051692404 -0.15797901 -0.06831432
000020 f5 aa f2 3c 61 5c 4b be 66 8c ca bd b9 5b 52 3e
       0.029622534 -0.19859459 -0.0989006 0.20542802
000030 ca 30 76 bd 2a 37 e8 bd 28 78 70 3d f1 31 07 be
       -0.060105123 -0.11338647 0.05870834 -0.13202645
000040 b2 2c 0c 3e 03 e5 bc bc 0e e0 5e 3e 4a d9 96 bd
       0.13688925 -0.02305842 0.21765158 -0.07365663
000050 92 01 8f 3d fa ba 0f be ae 64 1c be 50 c1 03 3d
       0.069827214 -0.1403617 -0.15272781 0.03216678
000060 1c e0 97 bd 0f b6 a2 bd 8a 03 5d bd 87 84 5a 3e
       -0.07415792 -0.07944881 -0.053958453 0.21339618
000070 33 8c 16 be 3b 3d 30 be 82 cf 42 3b 15 9d 25 3e
       -0.1470192 -0.17210858 0.0029725735 0.16173203
000080 7e 34 f5 bd f8 29 29 be 53 c9 29 bd 79 15 4c bd
       -0.11972903 -0.16519916 -0.041451763 -0.049825165
000090 61 3f f1 bd 29 57 37 bd da 83 1c 3e 92 32 82 bc
       -0.11779667 -0.044760857 0.15284672 -0.015893254
0000a0 2a 45 1b bd 9d 3d 33 be 5a 25 2b bd 7f 7b 61 bd
       -0.037907757 -0.17503972 -0.041783668 -0.055049416
0000b0 fd ed e2 3c a2 07 a4 3d eb 06 43 3c f2 cc e5 3d
       0.027701372 0.08009268 0.011903505 0.11220731
0000c0 61 37 c2 bd 38 09 2c 3c 24 50 7b 3e 24 39 ad bd
       -0.09483219 0.010500245 0.2454229 -0.08458164
0000d0 fe 12 c7 bd c1 81 37 3e 37 bc 29 be 57 40 2c 3e
       -0.09720419 0.17920591 -0.16575705 0.16821419
0000e0 bf 81 ab bd e7 ff 04 3e a1 0f 41 3c fa 37 dd 3d
       -0.083743565 0.12988244 0.011783511 0.10801692
0000f0 14 5e 1e bd e5 52 b0 3d cc c4 d4 3d 13 2c 05 bd
       -0.03866394 0.08609561 0.103890985 -0.032512736
000100 79 d0 3c 3d e8 47 e5 3c 3b 5c 56 3e a6 80 18 3e
       0.046097253 0.02798839 0.2093362 0.14892825
000110 52 63 73 3e 36 f6 8a bb 2d 2e 34 3e b8 88 fa 3c
       0.23768356 -0.0042407764 0.1759574 0.03058277
000120 48 e1 05 3e c9 12 fc 3d 74 25 0c 3e d1 25 fa 3c
       0.13074219 0.123082705 0.13686162 0.03053561
000130 3d 5e 04 3e 0d 21 68 3d 82 cf b5 3e d0 7e 26 3e
       0.12926574 0.056672145 0.35509878 0.16259313
000140 46 bc a1 3d 86 bc 9a 3d c5 68 70 3e 69 12 71 3e
       0.078972384 0.07555489 0.23477466 0.23542179
000150 2a a9 e5 3d 13 03 36 3e 3f b0 51 3e 4a 1b 21 3e
       0.11213906 0.1777461 0.20477389 0.15733066
000160 8c 67 7a 3e a1 28 71 3e 59 88 33 3d c1 bd 1b 3d
       0.24453562 0.23550655 0.043831203 0.03802276
000170 d5 af 8c 3d 15 17 4b 3e dd f8 84 bd e9 d1 74 3e
       0.06869475 0.19833024 -0.064927794 0.239082
000180 b4 8d 10 3c bd 97 bb 3d 6e 24 43 3e 18 35 b4 bb
       0.008822847 0.09159801 0.19056866 -0.0054994933
000190 e0 82 8d 3b 7b 0c fc 3d 04 33 ac 3e bb 88 69 3e
       0.00431858 0.12307068 0.33632672 0.22806065
0001a0 8e 09 2d 3e 94 78 02 3e 68 87 52 3e e2 03 7c 3d
       0.16898176 0.1274131 0.20559466 0.06152714
0001b0 a3 09 84 3e 6f 81 07 3e 3d f7 60 3d 39 80 69 3d
       0.25788602 0.13232969 0.054923285 0.05700705
0001c0 3d db 5f 3e 23 90 84 3e 35 a5 ec bb a3 8f 90 3d
       0.21860977 0.25891218 -0.0072218427 0.070586465
0001d0 6a dc 0c 3d b1 da 10 3e 27 08 58 3e 3c b6 2e 3b
       0.03438989 0.14145924 0.2109686 0.0026658913
0001e0 85 d2 60 3e 75 ef 42 3d 65 07 76 3e 8e bd d9 3d
       0.21955307 0.047591645 0.24026258 0.10631858
0001f0 c8 03 75 3e b6 79 b9 3d f1 5a 40 3e b3 d3 e6 3d
       0.23927224 0.09056418 0.18784691 0.11270847
000200 1f fc 13 3d b1 65 39 3d 46 22 39 3e 03 fa 14 3e
       0.036129113 0.045262996 0.1807948 0.14548497
000210 a9 91 c8 bd 7d f4 c7 bd 6c 67 20 be 4b a3 a4 3c
       -0.097934075 -0.09763429 -0.15664452 0.020097395
000220 e4 87 ee 3c 12 8e c8 bc 17 4e 96 3d 8c 00 ff bd
       0.029117532 -0.024481807 0.07339113 -0.12451276
000230 40 35 8d bd 82 29 b2 3d 6c ce be 3d e9 b7 fd bb
       -0.06894922 0.08699323 0.093167156 -0.007742871
000240 82 5b 07 be f2 9b 3d be 87 30 ea 3d e9 4d 57 3d
       -0.13218501 -0.1851652 0.11435037 0.052564535
000250 df fc 58 3e 6e 3e 33 3e 0c e5 63 3d 76 15 a6 bd
       0.21190213 0.17504284 0.055638358 -0.08109562
000260 fc cc 08 3e 7d e2 20 be 2d 5f 5b be d7 16 f6 3d
       0.13359445 -0.15711398 -0.21423025 0.12016075
000270 06 89 a5 bd 2c 3e 64 3e e3 0f f0 3d 84 51 84 bd
       -0.08082776 0.22289342 0.1172178 -0.0646086
000280 2f 61 42 bd 45 46 51 be 6a 27 0e be d2 0d 6c 3d
       -0.047455963 -0.20436962 -0.13882223 0.057630368
000290 21 ee 4b 3c 6f 74 b3 3d 3f 7f 91 bc 73 ec 33 be
       0.012446911 0.08762442 -0.017760871 -0.17570667
0002a0 d3 ba 64 3c 4d 74 bf bd c3 ef 4b 3d 26 79 dc 3d
       0.013960558 -0.093483545 0.0497892 0.10765295
0002b0 07 03 a6 3d 4b 23 4a bd 1b f9 af bb ce 07 0b 3e
       0.08106046 -0.049350064 -0.005370272 0.13577196
0002c0 33 da 11 3e f5 a0 4e 3d 98 a9 4e bd 70 b3 e8 bd
       0.14243393 0.05044647 -0.050454706 -0.1136235
0002d0 89 8c 94 3d af fe e0 3c 6a 94 17 bd 41 fd 31 3e
       0.072533675 0.027465193 -0.037006773 0.17381765
0002e0 a1 16 90 bd 2b f1 d3 3d 11 f9 45 3d e3 94 7c bd
       -0.07035566 0.103487335 0.04833323 -0.061665427
0002f0 30 1a 20 be 6f 55 96 bd ec 35 68 3e 3d 28 5f 3e
       -0.1563499 -0.07340514 0.2267682 0.21792693
000300 27 3d 6b 3d 54 da 63 3e 86 87 61 bd 5d 44 34 3e
       0.057431366 0.22251254 -0.055060886 0.17604204
000310 2d d6 3e 3e 1c dc 2d 3e aa 13 0b bd 23 31 a8 3e
       0.18636389 0.16978496 -0.0339543 0.32849988
000320 1b 3a f0 3d 0a 27 38 3d 6f 9e df 3e 03 25 c2 3e
       0.11729833 0.044959106 0.43675563 0.37918863
000330 34 31 7b 3e f7 dc fb 3d ca 39 9c 3e e7 bc 56 3e
       0.24530488 0.12298005 0.3051284 0.20970498
000340 d9 37 aa 3e e3 94 b3 3e 88 ee 80 3e 73 94 ae 3e
       0.33245733 0.3507453 0.25181985 0.34097633
000350 3e 36 92 3d 61 da 02 3e ce 3a a6 3e 3b 7e 1f 3e
       0.07139252 0.12778617 0.3246674 0.15575497
000360 5d f6 7a 3e b2 36 e8 3d a1 5d 2b 3e 30 bf 51 3e
       0.24508043 0.11338557 0.16734935 0.20483088
000370 bf 80 39 3e e2 15 60 3e 98 4f d9 3d 85 8c fa bb
       0.18115519 0.21883348 0.106108844 -0.0076461458
000380 7b 0c ae 3d 93 cd 56 3e 51 ea 96 3d f7 e0 5a 3e
       0.08498474 0.20976858 0.07368911 0.2137488
000390 a5 b2 7b 3e a6 d8 0d 3e 5a 38 25 3e 08 2d 03 3e
       0.24579866 0.13852176 0.16134778 0.12810147
0003a0 c0 59 c7 3e 30 6e b0 3e cf 84 01 be 62 a9 3e 3e
       0.3893566 0.34459066 -0.12648319 0.18619302
0003b0 ee db 9b 3e 2c ec c9 3e 46 9c 2b 3e 71 34 8d 3e
       0.3044123 0.39437997 0.16758832 0.27579072
0003c0 14 65 8b 3e e8 aa 94 bb b1 0d b3 3e 18 71 c2 bd
       0.27225554 -0.004536975 0.34971383 -0.09494227
0003d0 a4 ec 78 3e 18 21 ca 3d dc 0f 76 bd 13 f6 59 3e
       0.24309021 0.098695934 -0.06007372 0.21285276
0003e0 ca 4e b3 3d ac 5a 39 bb d4 87 75 3d 47 5a a8 3e
       0.08755262 -0.0028282804 0.05994399 0.32881376
0003f0 df f2 9d 3e 03 99 8f 3d 86 1a 32 3e 4d 8c 93 3d
       0.30849358 0.070116065 0.1739293 0.072044946

lstm.bias_hh_l0 f4 [256]
000000 3e 6e 11 be 01 90 33 3e 95 56 87 bd 61 79 de bd
       -0.1420221 0.17535402 -0.06608311 -0.10862995
000010 08 f5 0d 3e 2a ba 23 be 3e 83 9a 3c 63 33 6c bd
       0.13863003 -0.15988985 0.01886141 -0.057666194
000020 5f 3f 0b be 03 a2 bd bd 10 35 ca bc a9 fa 1b 3e
       -0.13598393 -0.09259417 -0.024683505 0.15232338
000030 fd 6d 2c 3d c2 1b b6 bd 1b d1 0c 3e fc bd c0 bd
       0.04209708 -0.08892013 0.13751642 -0.09411237
000040 88 b8 d5 bb 8d 37 4d 3e d0 d2 58 3e da c8 60 3d
       -0.006522242 0.20040722 0.21174169 0.054879047
000050 10 a8 a6 bd 1e 66 83 bd a7 cb d2 bd c7 a2 b7 3c
       -0.08137524 -0.06415962 -0.1029275 0.022416485
000060 b9 38 e9 bd 20 4f b5 bc 95 7d 85 bd c8 f1 b1 3d
       -0.11387772 -0.022132456 -0.065180935 0.08688694
000070 84 74 61 bd 08 eb 98 bd d4 4e ec bd c2 90 34 3e
       -0.05504276 -0.07466704 -0.11538473 0.17633346
000080 56 57 5d be 3f 80 97 bd 3c ef 7a 3c 84 b2 57 bc
       -0.21615347 -0.07397508 0.015315827 -0.01316512
000090 18 46 9a 3c 81 47 65 bd 9c 95 ae 3d e2 95 d8 bd
       0.018832251 -0.055976395 0.085246295 -0.10575463
0000a0 bd 1f a9 bd 22 9f f0 bd 14 ed b5 3d b9 e2 9f bd
       -0.08258007 -0.11749102 0.0888311 -0.07806916
0000b0 1c 86 96 3c f9 c2 03 be cf bc a9 bd 5c 86 a0 3d
       0.018374495 -0.12867345 -0.082879655 0.07838127
0000c0 75 69 5a bb 3f 84 32 3e bf 1e 30 3e f5 91 75 3b
       -0.0033327017 0.1743326 0.17199229 0.003747103
0000d0 56 d6 11 be 3b a5 6c 3d 3b 4c d6 bc 6f 11 c7 3d
       -0.14241919 0.057774764 -0.026159396 0.09720122
0000e0 c3 cd 02 be 2d 4f 2b 3e dd c5 21 be 05 f9 4d 3e
       -0.12773804 0.16729422 -0.15798135 0.20114525
0000f0 2a 95 98 3d b9 a7 27 3d 08 75 69 bd 8b 03 b6 3c
       0.07450326 0.040931437 -0.056996375 0.022218486
000100 59 1f 20 3d 1b 51 d1 3d 5e 20 74 3e 44 44 0c 3e
       0.039092395 0.10220548 0.23840472 0.13697916
000110 2b b1 62 3e bc 20 0a 3c 7d 3e 67 3e bc 70 ed 3d
       0.22137897 0.008430656 0.22582431 0.11593768
000120 ec 11 7d 3d 09 e0 48 3e 1b 03 65 3e e2 0f 82 3c
       0.06178467 0.19616713 0.22364466 0.015876714
000130 ee 93 ae 3d 0c db 4a bc 2b cf 96 3e dc 55 e1 3d
       0.08524309 -0.012381326 0.29454932 0.110027045
000140 34 bb e3 3d b4 3d 47 3d 8c 75 b1 3e 12 ec 90 3e
       0.111196905 0.04864283 0.34659994 0.28305107
000150 be ec 0f 3d a6 62 f1 3d 9f f7 68 3e 8f d8 b7 3d
       0.035137884 0.11786394 0.2275071 0.08976852
000160 0b c2 3a 3e b3 b4 1b 3e fe b8 c8 3d 7e 73 5e 3e
       0.18238084 0.1520565 0.098009095 0.21723744
000170 a2 14 0b 3e 66 e3 3a 3e 1a d5 a3 bd 6f 4b 0b 3e
       0.1358209 0.18250808 -0.0799963 0.13602994
000180 fa 83 f4 3c 78 3d 12 3e bc 83 17 3e 55 ff 84 bc
       0.029848088 0.14281261 0.14796346 -0.016235033
000190 be 3c fd 3d a6 66 c3 3d 54 cd b7 3e cc a7 19 3d
       0.12365101 0.09541063 0.3589884 0.03751354
0001a0 ae 9a bf 3d 6a 45 7f 3e c3 c2 95 3e 95 f6 58 3e
       0.09355675 0.24928823 0.29250154 0.21187814
0001b0 96 67 48 3e 4d a9 6c 3d 39 06 f4 3d 46 7e e2 3d
       0.19570765 0.057778645 0.119152494 0.11059241
0001c0 e9 1f 52 3e dc 54 80 3e 26 f4 71 ba 29 ae 37 3e
       0.20519985 0.25064743 -0.00092298014 0.1793753
0001d0 ff c6 57 3e a4 6a eb 3d c7 40 1b 3e 4a 85 57 3d
       0.21072005 0.114949495 0.1516143 0.05261735
0001e0 a2 1d 81 3e 96 2a 17 3e f1 4a 94 3e 49 1b 1b 3e
       0.2521792 0.14762339 0.28963426 0.15147127
0001f0 e1 46 25 3e 4c f9 1b 3e b0 b9 e7 3d d5 f5 87 3e
       0.1614032 0.15231818 0.11314714 0.26554742
000200 73 1f d8 3d 75 aa ce bd a8 f1 8e 3d 83 a2 21 3e
       0.105528735 -0.10091106 0.06979686 0.1578465
000210 49 d9 b3 bc a7 a6 19 3d 6e 19 94 3d 4a bc 8a bd
       -0.021954196 0.037512448 0.07231413 -0.067741945
000220 42 cb 81 3c 1c 5d 0a 3d ee 39 29 3e 35 25 e7 bd
       0.015843991 0.033780202 0.16526005 -0.112863936
000230 0d ca 7e 3c 4a 5e 4c 3d 1c c6 19 3d 6e 7d 87 bc
       0.015551102 0.04989461 0.037542447 -0.016539302
000240 32 55 b2 bd 73 86 4c bd 07 0c 06 3e 24 51 69 3e
       -0.08707656 -0.04993291 0.13090526 0.22784859
000250 4f 88 3f 3b fd f9 38 3e 76 11 aa bc d5 10 0a be
       0.0029225533 0.18064113 -0.02076028 -0.13482983
000260 2c f4 63 3e a0 fc 8a bc 96 35 ca bd 7c 5f a5 3d
       0.22261113 -0.016966164 -0.09873502 0.08074853
000270 b4 7d 45 bd 43 2b 6c 3e 9f 80 db 3c 53 b6 6e bd
       -0.048215583 0.23063378 0.02679473 -0.058279347
000280 e3 8d 03 3e 3f 8b 2e be bd 99 91 bd 96 00 f8 bc
       0.12847094 -0.17045306 -0.071094014 -0.030273717
000290 63 c4 46 bc d1 c7 d3 3d 65 a2 8a 3d 30 0e 88 bd
       -0.012131783 0.10340846 0.067692555 -0.06643331
0002a0 4b 2f a8 bd b9 7d 96 bd 68 d4 27 3d 84 d3 3e 3e
       -0.082121454 -0.073481984 0.04097405 0.18635374
0002b0 bc a5 48 3d 52 f7 11 3d 1b 7e ef 3d 8a 70 1b 3e
       0.04898618 0.035636254 0.116939746 0.15179649
0002c0 26 0e 83 3e 99 6f 44 bc be c5 83 3d 7b 57 48 bc
       0.25596732 -0.011989498 0.06434201 -0.012227888
0002d0 07 16 4e 3e ad 44 c8 3d eb 9c 86 3d b3 e3 0a 3e
       0.2012559 0.09778724 0.065728985 0.13563423
0002e0 c5 e6 c0 bc 38 8c 4e 3c fe 8f c8 bd 53 16 ab 3d
       -0.02354754 0.012606673 -0.09793089 0.083538674
0002f0 21 3e e0 bd 8b 27 03 3e d4 05 91 3e 68 9b 06 3e
       -0.1094935 0.12808053 0.2832476 0.1314522
000300 7f e0 4b 3d c1 a5 83 3e fb 49 0d bc 76 13 78 3e
       0.049774643 0.25712398 -0.008623595 0.24226174
000310 52 f9 a6 3e 6d ac 96 3e 3b b5 bc 3c 2e e9 b3 3e
       0.3261209 0.29428425 0.023035636 0.3513884
000320 5e 27 9a 3e fb 49 a5 3c 1b 44 f5 3e e7 fc 57 3e
       0.3010816 0.020176878 0.47903523 0.21092568
000330 4a 38 66 3e 86 d1 b4 3d 62 e2 ab 3e fd 02 5e 3e
       0.2248241 0.08829026 0.33571154 0.21680827
000340 fd 20 12 3e a7 6e bc 3e fd 69 82 3e bd c6 30 3e
       0.14270397 0.3680317 0.25471488 0.17263313
000350 5e b1 79 bc d5 98 a3 3d fc 0d 10 3e fb c3 d6 3d
       -0.015240042 0.07988135 0.14067835 0.10486599
000360 73 93 a9 3e b9 2f 12 3e a9 3e 69 3e bc 2e f3 3d
       0.33120307 0.14276017 0.22777809 0.11874148
000370 00 7f c5 3c 39 f1 4b 3e 96 87 b6 bc cd d0 04 3d
       0.02410841 0.19916238 -0.02228145 0.03242569
000380 b7 fd 7e 3e 75 84 2c 3e bf d8 68 3e 52 8b 78 3e
       0.24901472 0.16847403 0.22738932 0.24271896
000390 fd 66 31 3e 19 18 69 3e f0 cc 8f 3e e5 01 85 3e
       0.17324443 0.22763099 0.28086042 0.25978008
0003a0 63 94 ae 3e 4f 44 3e 3e d1 c6 95 bd 4f a2 76 3e
       0.34097585 0.18580745 -0.07313312 0.24085353
0003b0 03 2f 7a 3e c8 06 b7 3e c3 10 b5 bc 3a da 7e 3e
       0.24431996 0.3574736 -0.02210272 0.24887934
0003c0 2d a3 6a 3e c5 9e fb 3d 2d 0e 9e 3e ff 7c c8 bc
       0.22913809 0.12286142 0.3087019 -0.024473665
0003d0 92 23 8b 3e 94 eb 82 3e 81 cd 8c bd 63 6e bc 3e
       0.27175575 0.25570357 -0.06875134 0.36802968
0003e0 ef 36 99 3d ce 5a d1 bd 98 d9 d7 bd e9 74 9c 3e
       0.07481181 -0.10222398 -0.105395496 0.30557945
0003f0 74 44 13 3e 13 37 84 bc bf 53 06 3d 42 1a 29 3d
       0.14381582 -0.016139543 0.03279471 0.041284807

fc.weight f4 [1, 64]
000000 d3 69 5c 3f c5 9b 33 3f b4 6f 67 3f b4 ae 65 3f
       0.86098975 0.7015956 0.9040482 0.897197
000010 6d e7 77 3f 9a a3 53 bf 5e 03 5b bf ad 05 5b 3f
       0.968375 -0.8267151 -0.8555201 0.85555536
000020 2e 04 4f bf 26 68 62 bf 81 48 49 3f 96 a8 70 bf
       -0.8086575 -0.8844017 0.7862626 -0.9400724
000030 0a 6f 5f 3f de 85 6f 3f 20 16 56 bf ab 0a 5c bf
       0.8727881 0.9356364 -0.8362751 -0.8595378
000040 c6 d6 64 bf 77 2a 54 bf fe 75 6e 3f 16 e9 55 3f
       -0.8939022 -0.82877296 0.9314879 0.83558786
000050 2b 3b 54 3f e6 5d 64 3f ad df 76 3f f7 f1 56 bf
       0.82902783 0.8920578 0.9643505 -0.8396296
000060 a7 7d 5d 3f fb f5 56 bf 5e 04 5b bf 8f 0a 51 bf
       0.86519855 -0.83969086 -0.8555354 -0.81656736
000070 e8 d8 50 bf 97 43 60 3f a8 c3 55 3f db de 48 bf
       -0.8158097 0.87603134 0.8350167 -0.7846505
000080 a2 e5 58 bf 23 b2 56 bf 66 8d 67 bf 9b 33 5f bf
       -0.8472539 -0.83865565 -0.9045013 -0.8718812
000090 3c fa 87 3f 83 be 45 3f 0b b3 71 3f 9f 94 58 bf
       1.062324 0.7724382 0.9441382 -0.8460178
0000a0 ac 8e 63 3f aa 81 88 3f c6 00 4d bf 7b 16 53 3f
       0.88889575 1.066457 -0.80079305 0.8245618
0000b0 94 48 5f bf 4c 9d 4c 3f 66 60 4c 3f b7 43 4c 3f
       -0.8722012 0.79927516 0.7983459 0.79790825
0000c0 5b 50 62 3f 12 25 4b 3f ed 24 5c 3f c1 19 59 3f
       0.8840386 0.7935344 0.85993844 0.8480492
0000d0 8c 32 60 3f 7c 36 61 3f 97 92 54 3f 76 45 59 bf
       0.8757713 0.8797376 0.8303618 -0.84871614
0000e0 21 f1 77 bf 1c 83 43 bf ef e3 5f 3f d7 95 70 3f
       -0.9685231 -0.7637193 0.87457174 0.9397864
0000f0 05 0b 4f bf d2 b9 52 bf 23 9f 44 3f 7b d7 54 3f
       -0.8087619 -0.8231479 0.76805323 0.831413

exp_avg f4 [11, 128]
000000 6f f4 d5 39 5c b9 b8 b9 d4 37 85 ba 35 60 97 b9
       0.00040808643 -0.00035233318 -0.0010163733 -0.00028872644
000010 4c b4 06 3a e1 5d 64 ba db 30 1b ba 69 bf 73 ba
       0.00051385607 -0.0008711499 -0.0005920061 -0.00092982367
000020 ba cf a2 b8 ba 72 ba 39 d6 95 1d ba 4e dc 30 ba
       -7.763454e-05 0.00035562163 -0.0006011402 -0.0006746695
000030 e1 a1 e1 3a 44 4d b3 38 1e e2 eb ba 6f a3 10 3b
       0.0017214381 8.549777e-05 -0.0017996465 0.002207007
000040 dc ef a8 ba 06 4d 2f ba 01 a0 0a b8 ea 38 9f ba
       -0.0012888866 -0.00066871976 -3.305078e-05 -0.0012147699
000050 48 37 57 b8 47 35 3b 3a 9a c4 53 ba c9 9c 87 b9
       -5.131148e-05 0.0007141423 -0.0008078307 -0.0002586602
000060 4b ff df 39 22 fc 97 3a ec 05 10 bb 50 81 7d 39
       0.00042724083 0.0011595527 -0.0021976186 0.00024176133
000070 f7 65 75 3b dc da dd 39 4c 94 71 ba 30 de 89 b9
       0.003744481 0.00042315468 -0.00092155184 -0.0002629622
000080 12 c1 ec b9 42 2e c3 ba ca e3 17 ba 97 f7 2a bb
       -0.00045157276 -0.0014891105 -0.0005794136 -0.0026087516
000090 6b 36 4c b9 b7 f9 b2 39 6d 83 a0 3a 8c 53 23 bb
       -0.00019475228 0.00034136858 0.0012246199 -0.0024921624
0000a0 75 b1 c6 3a a5 e5 56 3a 66 dc c4 3a 86 77 85 3a
       0.0015159087 0.0008197672 0.0015019297 0.0010182715
0000b0 ba dc 32 3a 79 1a c1 b9 c3 7b c6 3a 30 db bb 3a
       0.0006823052 -0.00036831552 0.0015143085 0.0014332291
0000c0 1a 68 2c 3a 58 8e 1a ba 8e da 8b b8 dd 65 28 3b
       0.00065767916 -0.00058958447 -6.6687455e-05 0.002569548
0000d0 bf e3 63 3a 43 ad dd 39 9b 02 f9 3a 8d 65 d2 3a
       0.00086932996 0.00042281495 0.0018997969 0.0016051993
0000e0 73 13 83 ba 72 dc 37 3a ba a2 a3 39 80 0e 46 b9
       -0.0010000303 0.0007013745 0.00031211023 -0.00018888153
0000f0 5c 5f 0f 3a 15 50 00 3b 86 06 37 ba 99 90 13 bb
       0.0005469227 0.0019578983 -0.0006981868 -0.0022516607
000100 ed c9 86 ba 0c 0c 4e ba 66 fe a9 3a 62 67 54 ba
       -0.0010283567 -0.00078600715 0.0012969493 -0.00081025634
000110 5b eb 0c 3b 21 33 3d ba a9 b3 2d 3b c2 6f 4a 39
       0.0021502587 -0.00072173966 0.002650479 0.00019305854
000120 f3 a8 7f 3b 40 f0 a8 ba 70 04 ca 39 27 21 08 3a
       0.0039010614 -0.0012888983 0.0003853175 0.00051929284
000130 20 80 f1 39 58 8d 35 38 8e 63 11 3a 4c b0 d7 39
       0.00046062563 4.32854e-05 0.0005546146 0.00041139347
000140 37 6d 77 3a 41 73 87 ba ef 6e a5 ba 41 ea 2a bb
       0.00094385765 -0.0010334031 -0.0012621562 -0.0026079568
000150 bb 58 8a ba 9c 01 62 37 d3 53 36 3b a6 d1 90 ba
       -0.0010555008 1.3471024e-05 0.002782096 -0.0011048808
000160 3f f0 53 3a a7 10 24 ba 8e a6 04 b9 5c 7c 98 3a
       0.00080848107 -0.0006258585 -0.00012650547 0.0011633742
000170 8b fe 9e 37 0c c7 e1 ba 31 04 1a bb 5f 38 ff 3a
       1.8953599e-05 -0.0017225458 -0.0023501033 0.0019471756
000180 8d e4 4d 39 3d 6d fc b9 ed 8f d1 39 35 2f b0 b9
       0.00019635465 -0.00048146574 0.0003997082 -0.00033604508
000190 32 de 1b bb e6 ab fe b9 8a 91 87 b8 b7 28 4f ba
       -0.0023783562 -0.0004857473 -6.4644104e-05 -0.00079024903
0001a0 35 16 0d b8 77 32 87 ba 9c 33 5a ba 99 88 15 ba
       -3.36377e-05 -0.0010314722 -0.00083237304 -0.00057042536
0001b0 95 5e ea ba 08 a4 99 39 b5 0a 0d 3b 34 b5 fc 39
       -0.0017880971 0.00029304647 0.0021521274 0.00048200192
0001c0 8f 28 8c 3a 81 13 a0 38 9b 4f dd 3a 3b 67 f5 ba
       0.001069324 7.6330274e-05 0.0016884686 -0.0018722782
0001d0 77 7b 05 bb fb f9 9d ba 98 03 f4 ba b5 c8 47 ba
       -0.002036778 -0.0012052649 -0.0018616794 -0.0007621155
0001e0 64 a5 c6 3a cb 63 c4 3a 5b 4c a3 b9 71 e6 39 ba
       0.0015155491 0.0014983354 -0.00031146672 -0.00070915284
0001f0 55 e7 50 39 c7 35 86 38 12 93 96 39 b8 67 89 3a
       0.00019922604 6.399635e-05 0.00028719805 0.0010483181
000200 96 7e 95 39 ca b0 fc b9 9b f7 20 ba 56 8e 5e 3a
       0.00028513809 -0.00048196904 -0.0006140412 0.00084898376
000210 e3 b2 7e 39 4d d3 d3 ba 8f 5f 7d b9 42 45 e8 39
       0.00024289968 -0.0016160995 -0.00024163559 0.0004430209
000220 bb 91 45 bb 9b de ce ba 9e 2c 2c 3a af 89 83 b8
       -0.0030146677 -0.0015782894 0.0006567928 -6.272212e-05
000230 fc bd 07 3b a4 9b a7 3a 60 89 17 3a ba f8 06 ba
       0.0020712605 0.0012787473 0.00057806633 -0.00051487575
000240 97 6d a5 39 c4 50 05 3b 12 c5 07 38 bc 97 6d ba
       0.00031552903 0.002034233 3.2370044e-05 -0.00090634427
000250 8c cc 54 39 9f 14 ab 39 17 16 a0 38 b8 87 05 ba
       0.00020294095 0.00032631026 7.633509e-05 -0.0005093771
000260 18 ca fa ba 2f 43 92 ba 5f 46 85 ba 7b 54 b0 b9
       -0.0019133715 -0.0011158938 -0.0010168067 -0.0003363228
000270 7a 0b 36 3b a5 02 18 ba aa ca 8e 38 33 bf 7e ba
       0.0027777837 -0.0005798734 6.808837e-05 -0.0009717822
000280 bb 9a 8c 39 2e d4 24 3a 06 ef 94 3a 2f 39 06 ba
       0.00026818164 0.0006287721 0.0011362738 -0.00051202154
000290 0d 4b 20 b8 87 52 c1 b9 fe 97 4e ba 2b 17 47 b9
       -3.821687e-05 -0.00036873316 -0.0007880925 -0.0001898675
0002a0 84 40 36 b8 66 d2 9c ba b6 4e 9d b9 8c 13 f1 b9
       -4.3452266e-05 -0.0011964559 -0.00030004018 -0.00045981666
0002b0 b6 91 86 3a 1d 5c 96 39 02 f0 1a 3a d8 0b a9 b9
       0.0010266814 0.0002867886 0.0005910398 -0.00032243016
0002c0 4b 9c ce 38 33 a9 44 ba e6 1f a1 b9 f5 7b 3c ba
       9.851957e-05 -0.0007502019 -0.0003073208 -0.0007190102
0002d0 de 16 b3 b8 ce 27 33 ba aa 59 b2 3a d9 e0 46 38
       -8.5396445e-05 -0.00068342395 0.0013607044 4.7416284e-05
0002e0 aa 45 d6 39 99 d6 1b 3b 6f 16 14 38 59 4b 25 3a
       0.00040869165 0.0023779033 3.5306843e-05 0.0006305478
0002f0 68 66 0e 3a 67 76 c8 ba 75 8a 28 3b de bc 8b ba
       0.000543213 -0.0015294076 0.0025717292 -0.0010661145
000300 f8 55 20 bb 1c 87 8d 39 ef 40 1a ba a8 7d 0a 39
       -0.0024465304 0.0002699428 -0.00058843096 0.00013207516
000310 74 7d ce b9 0a ff ac b9 0b 44 21 3a e4 de 94 3a
       -0.00039384852 -0.00032996415 0.0006151802 0.001135793
000320 84 f0 12 3a 68 84 05 39 69 d5 71 ba df ae d0 b8
       0.00056052976 0.00012733194 -0.0009225221 -9.950785e-05
000330 ad e9 9d b9 94 f5 2b ba 24 ac 34 ba 79 3a bc 37
       -0.00030119476 -0.00065597263 -0.0006892106 2.2438575e-05
000340 c3 6b af b9 53 fc 85 3a 7d d4 6c 38 29 e5 f1 ba
       -0.0003345889 0.0010222293 5.646468e-05 -0.0018455136
000350 88 ee d7 b9 53 09 46 ba fd a1 bf 38 d1 3e ea b9
       -0.00041185715 -0.000755449 9.1377624e-05 -0.0004467876
000360 a3 4b c5 3a e0 2a 52 39 fe d4 a1 3a b9 ab af b9
       0.0015052449 0.00020043133 0.0012346802 -0.00033506544
000370 fe 54 bc b9 20 e9 89 3a 44 2f 65 ba 32 44 1e 3a
       -0.00035921478 0.0010521747 -0.00087427 0.00060373836
000380 30 aa ab 3a 94 5d b2 3a 4f 65 b0 3a 97 31 a8 ba
       0.0013096984 0.0013608211 0.0013457927 -0.0012832162
000390 51 a5 9d ba e0 72 a2 3a 88 a9 aa 3a bc f6 b1 3a
       -0.0012027418 0.0012393855 0.0013020495 0.0013577561
0003a0 5e 90 e4 b9 6d 38 cd 3a 09 a6 eb b8 c7 33 46 39
       -0.0004359511 0.0015657075 -0.000112366 0.0001890204
0003b0 d0 60 34 39 37 ad a2 3a dd ae 9f 38 7a 8e 1c 3a
       0.00017202203 0.0012411241 7.614282e-05 0.00059721584
0003c0 72 eb 6d 39 fd cc df b7 a8 46 56 3b 77 e3 eb b3
       0.00022689792 -2.6679127e-05 0.0032695923 -1.0984416e-07
0003d0 81 01 af ba 68 50 96 ba 96 7b 9c ba 28 46 70 b9
       -0.0013351889 -0.0011468055 -0.0011938687 -0.00022914319
0003e0 f6 0e 55 3a 76 44 5a 3a fa 4e fc 39 88 24 30 ba
       0.00081275345 0.00083262415 0.00048124028 -0.0006719311
0003f0 d9 2c e6 3a de 5f f8 39 d0 69 70 38 43 fb 9a 3a
       0.0017560973 0.00047373673 5.7319005e-05 0.0011824149
