Lab7_Axel_Dumont/code/part1/model_deepsets.pth.tar (torch, 123490 bytes, 12 tensors)

embedding.weight f4 [11, 128]
00000000: ca12 12c0 9de7 89be 33d2 dcbe 22c1 bfbf
00000010: f4f0 873f 5a1b dabe 196d a83f a3e1 64bf
00000020: 2ce9 e5bf e427 58bf 5b09 b6bf ffb2 60bf
00000030: d142 0ebf b237 90bd a27c 53bf 269c fd3e
00000040: f7e8 a53e 7347 e73e 6e27 863f f881 cebe
00000050: f9f1 4b3f 8d32 a5bf f0d3 21bf 9a36 d4bf
00000060: c82f 01bf eeed 3940 dd4b 993f e2b7 d03e
00000070: aa5e a0be 5166 993e c675 cd3e 3fd7 4f3f
00000080: e5d2 2f3d b011 acbf 1c40 a53f a633 dcbf
00000090: e334 fb3e 0164 77bf 302b c33f 395f fb3e
000000a0: 6987 173f 96e3 82bf 822b adbd ee04 0440
000000b0: 73bb 2c3f 93aa 103f 183e db3f 16f0 9bbf
000000c0: 6754 9e3f 46ce 763f 64ef 3dbf 69b3 9c3e
000000d0: 1ea3 9fbf 13da 973e df88 253f 52b6 c2bf
000000e0: a488 773f f721 1340 ac72 7cbf 2d42 40bd
000000f0: 482e e2bf af52 f2be c64f a53e c458 cd3f
00000100: dad0 823f 2529 38bf 1f3f 133f 873f a2bf
00000110: 66c3 0d3f 61d3 a3bf f2ae 7ebe 035b 133f
00000120: c4b2 22bf cd7a 94bf 0ba3 803f e3ae 81be
00000130: bf53 b5bf 8d2f babf 7071 1140 9f5e dcbf
00000140: e50f e1bf 2529 833d 6613 a5bf 57d9 2b3f
00000150: 128b 0f40 1fce c23e 8ecb 02c0 b4f1 e5be
00000160: 468c ccbf d50e b23f a3be 49bf 2d2b 923f
00000170: a87e 96be 55f9 6bbf 3ef9 2dbf b2e3 1fbe
00000180: f475 843f 2873 1640 d29a 0f3f 8d4d cfbf
00000190: ac83 083f 6050 7cbf edbc e33e 20bc 20bf
000001a0: 72f3 4a3e 9d6f df3f 23d0 ca3d f0a1 5fbe
000001b0: 6967 33bf 8c73 e0be 2fa9 c4bf d9ae 85bf
000001c0: d83c 943d cd43 ac3e 9b07 a3be c2fd b63f
000001d0: 7a3c fdbf 670a 0e3f a5d7 c93f 7598 e5bf
000001e0: a2b7 743f 53d4 33bf 3511 aebe db87 4a3d
000001f0: c016 833f 64a3 81bf 4ba4 34c0 861f e9be
00000200: 98cd 31bf 207a 253f 058a e53f 4f30 103f
00000210: 83b8 e93f f603 583f f24f 10bf d4c6 d13f
00000220: 5e90 3c3f ab7c b1be 361c bf3f 39c1 44bf
00000230: 3113 a13f 6ac8 143f 1ba7 1740 db16 313f
00000240: eeca d93e 2eb0 d0be 829d 77bf ff5f dd3e
00000250: 25a0 dbbe 4db8 a3bf 3d65 5bbf 0cd6 d23f
00000260: 5b9f 90bf d21a 343e 7bbc ec3f 9e12 003f
00000270: d00a ca3f eded d43e 21b3 1840 e1b6 0bbf
00000280: 87e2 96bf 39e5 4b3f 5d32 66bf 1f30 ebbf
00000290: 6363 2dbe 2483 9abe 995c b83f 0a10 1d3f
000002a0: ab2a 493d 69ac 893f 1eda 91bf fc2e d5bd
000002b0: e3fe a5be 2ad3 da3e a933 15bf 59fc 3e3e
000002c0: 3ef6 9dbf 6b22 07c0 9310 433e 3c7a 59be
000002d0: dd46 993f 7b01 a8be 8424 6e3f a0e1 12bf
000002e0: 55bc fb3f cb0d 56bf b6b7 62bf a97a 42bf
000002f0: baf1 bfbf 7cc3 023e b6b8 1d3f 9e56 7f3e
00000300: f3f4 283e d62d 113e 554e 743e ae90 9bbf
00000310: 96b9 29bf d3f6 b3be dbdd ca3f 54aa 563f
00000320: cb1e 30bf e2ee d33c 4949 9cbe 7b53 d4be
00000330: 6c42 97be 53cc 73bf 18fb e03f ca5f 2ebf
00000340: 1499 e83f 3832 1340 250f bfbf 191b 4840
00000350: 1ccd 88bf 3b9c ba3f 9dd4 35bf b839 51bd
00000360: 0939 ab3f b9e2 dfbf 1200 dd3f ee16 5c3e
00000370: 10e4 593f df25 86be 8872 b53f b3ae dc3f
00000380: e3f3 bd3e d7e0 2dbf 1693 c8bf 749d 96bf
00000390: 1d28 69bf 2766 0dc0 ad65 b33f 7980 aebf
000003a0: 2866 6bbc cd96 d1bd 3639 e93e d74a 6a3f
000003b0: 633b cd3f 2c56 f43f 55e4 0dbf 9c3e 82bf
000003c0: c4c5 963f 81a5 8d3f 20d7 8fbf eda2 863e
000003d0: 7b96 0d3e c390 7fbe 8d9c af3f c898 543f
000003e0: 8a5c 42be 33a0 1bbf f973 b83f c4dc fa3f
000003f0: 2a77 0fc0 5a8c 7dc0 3e14 053f 97bd 743d
-2.2823968 -0.2693452 -0.4312912 -1.4980814 1.0620408 -0.42598993 1.3158294 -0.89406794
-1.7961783 -0.8443587 -1.4221605 -0.87773126 -0.55570704 -0.07041873 -0.8261205 0.49533194
0.324043 0.451717 1.0480783 -0.40333533 0.79666096 -1.2906052 -0.63214016 -1.6579163
-0.50463533 2.905147 1.1976277 0.4076529 -0.31322223 0.29960874 0.40128917 0.81187814
0.042925734 -1.3442898 1.291019 -1.7203262 0.49063787 -0.9663697 1.5247555 0.49096087
0.59190995 -1.0225704 -0.08455564 2.062801 0.67473525 0.56510276 1.7128325 -1.2182643
1.2369508 0.964085 -0.74193406 0.3060563 -1.2471654 0.29658565 0.64661974 -1.521189
0.9669287 2.298948 -0.98612475 -0.04693811 -1.7670374 -0.47328708 0.32287425 1.6042714
1.0219986 -0.7193778 0.5751819 -1.2675637 0.5537628 -1.2798883 -0.24871424 0.5756075
-0.63554025 -1.1599976 1.0049757 -0.2532874 -1.4166182 -1.4545761 2.2725487 -1.7216376
-1.7582976 0.06404332 -1.2896545 0.6712851 2.2428632 0.38047883 -2.043674 -0.44910967
-1.5980308 1.3910776 -0.78806514 1.1419426 -0.29393506 -0.92177325 -0.6795844 -0.15614203
1.0348496 2.3507786 0.5609561 -1.6195542 0.53325915 -0.9856014 0.44480076 -0.62787056
0.1981943 1.7455937 0.0990298 -0.21839118 -0.70079666 -0.43838155 -1.5364131 -1.0443984
0.072381675 0.33645478 -0.3184174 1.4296191 -1.9784081 0.5548462 1.5768934 -1.7937151
0.955927 -0.70245856 -0.33997503 0.049445968 1.0241318 -1.0127988 -2.8225276 -0.45531863
-0.69454336 0.6463947 1.7932745 0.56323713 1.8259434 0.84381044 -0.56371987 1.6388803
0.73657787 -0.34665427 1.4930484 -0.76857334 1.2583982 0.5811831 2.3695743 0.691755
0.42537636 -0.40759414 -0.9672471 0.43237302 -0.42895618 -1.2790619 -0.8570135 1.6471572
-1.1298631 0.17588356 1.849502 0.5002841 1.578455 0.41587773 2.3859332 -0.54575926
-1.1787881 0.7964664 -0.899206 -1.837406 -0.16932444 -0.30178177 1.4403259 0.613526
0.049112957 1.075574 -1.1394689 -0.10409352 -0.32421026 0.4273923 -0.5828195 0.1865095
-1.2340772 -2.1114757 0.19049291 -0.21238035 1.1974751 -0.3281363 0.9302447 -0.57375526
1.9666849 -0.83614796 -0.8856157 -0.75968415 -1.4995644 0.12769884 0.6160997 0.24935386
0.1649969 0.14177641 0.23858006 -1.2153528 -0.66298807 -0.3514925 1.5848955 0.8385365
-0.68796986 0.025870744 -0.30524662 -0.4146994 -0.29542863 -0.9523365 1.7576628 -0.6811491
1.8171716 2.29994 -1.4926497 3.126654 -1.0687594 1.4578928 -0.7102755 -0.051080436
1.3376781 -1.7491065 1.7265646 0.21493122 0.8511362 -0.26200768 1.4175577 1.7240814
0.37100133 -0.67921203 -1.5669887 -1.1766801 -0.91076833 -2.20936 1.4015404 -1.3632957
-0.014367618 -0.10233841 0.4555146 0.91520447 1.6033748 1.9088798 -0.5542653 -1.0175357
1.1779103 1.1066133 -1.1237526 0.26296178 0.13826935 -0.24957566 1.371965 0.83045626
-0.18980613 -0.6079132 1.4410392 1.9598622 -2.2416482 -3.9616914 0.5198401 0.05975112

fc1.weight f4 [64, 128]
00000000: e60f 1f3e e2b7 b73d 45c9 7e3d c1e6 3f3e
00000010: e226 053d cd2a 19bd 1730 27be 1068 873d
00000020: c7f6 923d 125d 04be 9e98 2c3d 2a03 163c
00000030: 4022 d43d 99e8 93bd 9e37 623d 6497 e73c
00000040: ee63 eb3d 0e81 693d 6e36 0fbd 4c49 8cbd
00000050: d02b 58bd fb05 bcbd 5751 d7bd d7b5 773c
00000060: 4958 84bd 762b bdbb d061 483d 0d7f e6bd
00000070: 8110 d03d 435e 0ebd eae5 903d 25b3 343d
00000080: 19fc 893d 6c4b fb3c 5b1b 9ebd 5c14 f9bd
00000090: cce9 5e3d fd2d e7bd d64f f9bd 387e 8cbd
000000a0: b7a4 f1bd 4f0a 0a3e f256 febd 8bdd e3bd
000000b0: 19b1 223c d757 1ebe fb9b 3fbe 2109 2c3e
000000c0: 8378 3dbe 926c 0abe 4993 bbbd b09b 8f3d
000000d0: fbc3 3e3d 6708 18bd baf1 3bbc 5b4c e83d
000000e0: 6fae 16bd 7c51 6bbe 654f b7bd 205b 21be
000000f0: 4e45 e23b 764a 38be 0ef7 57bd eeb1 b4bd
00000100: a6ea 283d b1bc bbbc 9d61 773b f022 373e
00000110: e875 83be 0c9b 19bd 6397 04bd 9074 1a3e
00000120: eacc 05bc 3b2b 3f3d c251 023e e1a8 23bc
00000130: 7afd 87bc a105 3bbd aa96 5fbd c262 99bc
00000140: 8f89 873c 41f9 cdbc a711 3c3d 148a 4c3b
00000150: a084 0cbe 76f3 1abe 83d4 573e f7fb b6bd
00000160: 3a1a 7bbb 834e 523c 5ea2 96bd ecb5 45bd
00000170: 96d1 15be bda9 1abe 1faa 263e d82f 383e
00000180: 1150 1f3c f46f 1d3d 64b5 9ebe 9542 bb3d
00000190: bcd0 973c d421 1b3d fbae 7b3d 4089 413e
000001a0: 7237 1ebe 2562 6a3d 9511 f4bd 0a9b 053e
000001b0: 2f96 273e 2a70 013e c180 3fbd 2a0b bf3d
000001c0: 7f17 8fbd 530d c33c 2668 9f3c cb12 6bbd
000001d0: 1e51 02bd bbdc 0fbd 3415 b3bd 4570 443e
000001e0: cfde 123e d87f 72bd 56d6 bc3d 31c9 01be
000001f0: 26c1 19be 4b12 5cbd 26ea 483e 6c77 233d
00000200: 1661 b13c e006 15be 5546 f2ba b419 1ebd
00000210: dd44 72bd a06b 15bd e347 f83c 97ab 053b
00000220: a3af 10be c5f2 05be c6a1 ce3d e99f 85bd
00000230: 3134 943c ef10 823c a6db 383d 6881 003e
00000240: 9d73 903d 9f6e a03c bcc6 1b3d 374b 24be
00000250: 2188 a3bd 38cc 943c 8c46 1bbd 4f48 a03d
00000260: 3dda 46bd b353 27bd 27c2 cc3c f3b3 bdbc
00000270: 47ad 183d 407f 85bd cf18 e13d bbf7 e23d
00000280: a117 83bd 9fb1 57bd f046 bebc eaf5 92bd
00000290: 07a0 eb3d ba2e 15bd 3e5e 683a 2c7b ca3d
000002a0: 1ea9 01bd 1f3e 89bd 756d 0abe 3f5b 8b3d
000002b0: 9754 c73c d6c1 5dbd 2250 ad3d 105f d93c
000002c0: cfa0 df3d c3d6 fd3d 420d fbbc dd7f ba3d
000002d0: de56 7e3c 97da 92bd b916 bc3c 92ec 8dbc
000002e0: 797e cebc 150a a83d 39ae a8bc e9c4 0fbe
000002f0: 9ded 24bc 232d 06bd 84ee 233e fefa 06bd
00000300: 13d9 d93c 130d 72bc a5fd 703d 0660 8bbd
00000310: 9a92 653c 2ba1 5ebd ed91 ddbd 17dd 80bb
00000320: 5003 e03b 76f6 1dbe d3e4 f7bb 6aa7 8fbd
00000330: 2754 c9bd bf09 eabc 7dad d13d 4cc0 a4bd
00000340: f2ff cf3b 19d9 513d 5771 2abd c76b 023e
00000350: 847a 75bc d067 0ebe 6ce6 ecbd 9904 d63b
00000360: bb3c 4dbd 3ffa 3bbc e931 28be c702 00be
00000370: f227 9fbd 7d7d d8bd 1105 483d 6896 83bd
00000380: a31e 083e fe63 c13c 6555 0abe af6f 613d
00000390: 303f 313c c9f1 c0bd a16e 423c b9c6 fcbc
000003a0: cd41 26be 0d6e ed3d 7f39 023e ba1b 123c
000003b0: 23b3 f73d da2d e03c 6420 99bc 1cdc 9cbd
000003c0: a5ec 40bc 9c10 0a3e 1e29 b2bd 3b25 2f3c
000003d0: 7ad7 7cbd 7f92 813d b9e6 c53d 658a b5bd
000003e0: 8d78 3c3d 4906 96bd 5ed1 85bb b8cd 0c3e
000003f0: 1709 33bd bb52 90bd d3b9 61bd aa47 f3bd
0.15533409 0.0897062 0.062203664 0.1874037 0.032507785 -0.037394334 -0.16326939 0.06611645
0.07175975 -0.12926129 0.042137735 0.009156028 0.10358095 -0.07222099 0.055228822 0.02827043
0.114936695 0.05700784 -0.034964018 -0.06849918 -0.052776158 -0.09180828 -0.10513561 0.015119038
-0.064621516 -0.005773003 0.048921406 -0.11254702 0.10159398 -0.034757864 0.070751026 0.044116158
0.06737537 0.030675612 -0.077200614 -0.12162086 0.054422185 -0.112880684 -0.121734306 -0.06860012
-0.11798995 0.13480495 -0.12418927 -0.1112624 0.009929919 -0.15463196 -0.18711846 0.16800357
-0.18503003 -0.13517979 -0.09158952 0.07012117 0.04657362 -0.037117388 -0.011471206 0.11342689
-0.036787447 -0.22980303 -0.0895069 -0.15757418 0.0069052344 -0.17997155 -0.052725844 -0.08823
0.041239403 -0.022917124 0.003774739 0.17884421 -0.25675893 -0.03750138 -0.032370936 0.15083528
-0.008166531 0.046672087 0.127265 -0.009988994 -0.01660036 -0.045659665 -0.054587044 -0.01872385
0.016545085 -0.025143268 0.045915272 0.003121023 -0.13722467 -0.15131935 0.2107716 -0.08934777
-0.0038315193 0.012836101 -0.07355188 -0.048269197 -0.14630732 -0.15103813 0.16275834 0.17987001
0.009723679 0.038436845 -0.30997765 0.09143559 0.01853215 0.037874058 0.06144617 0.18900013
-0.15450838 0.057222504 -0.11917416 0.13047424 0.16365884 0.12640443 -0.04675365 0.09328301
-0.069869034 0.023810064 0.019458842 -0.05739097 -0.03181564 -0.035122614 -0.087442786 0.19183452
0.14342807 -0.059203953 0.09220569 -0.12674405 -0.15015087 -0.053728383 0.1962057 0.03990881
0.02165274 -0.14553404 -0.0018484095 -0.03859873 -0.059147704 -0.036479592 0.030307716 0.0020396465
-0.141295 -0.1308089 0.100894496 -0.06524641 0.018091293 0.015877215 0.045131348 0.12549365
0.070533015 0.019583998 0.038031325 -0.16044317 -0.07984949 0.018163785 -0.037909076 0.07826292
-0.048547972 -0.040851306 0.024994923 -0.023157096 0.037274625 -0.06518412 0.1099106 0.11082407
-0.06400991 -0.052659627 -0.023227185 -0.07175811 0.11505132 -0.036421515 0.0008864141 0.098867744
-0.031655423 -0.06701302 -0.13518317 0.06804513 0.024332328 -0.054139934 0.0846255 0.026534587
0.10919344 0.12394478 -0.03064597 0.09106419 0.01552364 -0.07170599 0.022960054 -0.01732472
-0.025206791 0.08205048 -0.020590888 -0.14039959 -0.010066417 -0.03275789 0.16008955 -0.03295421
0.026592767 -0.014773625 0.058835644 -0.068054244 0.014012003 -0.05435292 -0.10818849 -0.003932606
0.0068363324 -0.15426049 -0.00756512 -0.070143536 -0.09830504 -0.0285691 0.102381684 -0.0804449
0.0063476497 0.05123243 -0.041611996 0.12736426 -0.014982823 -0.13906789 -0.11567387 0.00653131
-0.050106745 -0.011473238 -0.16425289 -0.1250106 -0.07771291 -0.1057081 0.048832957 -0.06425172
0.13292937 0.02360725 -0.13509138 0.05503815 0.010818288 -0.09421117 0.011867196 -0.030856477
-0.16236039 0.11593256 0.12717246 0.008917743 0.120947145 0.027365614 -0.018692203 -0.0765917
-0.01177517 0.13482898 -0.08699249 0.010690029 -0.061728932 0.0632677 0.096631475 -0.08864287
0.046013404 -0.073254175 -0.0040837964 0.1375035 -0.04370984 -0.070470296 -0.055108856 -0.11878903

fc1.bias f4 [64]
00000000: caaa f03d 3196 d23d 3f3e a93d 62a7 07be
00000010: 4a40 1ebe ef35 7fbd 5500 0dbd 066a 78bd
00000020: 5f5f 043e 3f9b 5db9 4a3f 9bbc 9023 b13d
00000030: 2711 92bd fb9e 8ebc 4dd3 a43d 844c 043d
00000040: 4abe 8abd ed5b 963d 0571 953d 59a7 2b3e
00000050: b7c9 81bd dcfc adbd 832d 12be 5e65 67bd
00000060: 7445 03be 43bc 4c3d 65c3 e43d 64d1 78bc
00000070: 457b fb3d 739a 0cbe a1a5 cb3d 1e9a 51bd
00000080: a67f b33c 8c16 9f3d e7f9 3a3c b55c 2dbd
00000090: c90a 943c 3cf7 8f3d 8eba d0bd a108 bf3d
000000a0: 0f02 3b3d 0e92 92bd 8690 8fbd 17a5 25bd
000000b0: c304 b5bc adb4 a5bd ce84 bf3d 9e5c a63c
000000c0: 4e6b 06be 1855 adbd 297f 27be d16f b73d
000000d0: 40a5 83bd b5dc 29bd adc6 cf3c 8397 f93d
000000e0: 1687 fc3d 7b4e 063e 9d55 2fbd 9b01 7ebd
000000f0: b1a6 fbbd 3373 e13d 7e02 ceba 95d7 2cbe
0.117513254 0.10282553 0.082638256 -0.13247445 -0.15454212 -0.062307294 -0.034424145 -0.060647987
0.12927006 -0.00021134036 -0.018951077 0.08649361 -0.07132178 -0.017409792 0.08048115 0.032299533
-0.06774576 0.07341752 0.072969474 0.16763057 -0.06337302 -0.08495495 -0.14275174 -0.056493156
-0.12819463 0.049984228 0.11170081 -0.015186641 0.12279371 -0.13730793 0.099437006 -0.05117237
0.021911453 0.07767972 0.01141212 -0.04232474 0.018071549 0.07029578 -0.101918325 0.09327818
0.04565626 -0.07156764 -0.070099875 -0.040440645 -0.022096997 -0.08091102 0.09351502 0.020307835
-0.13126871 -0.08463496 -0.16357102 0.08956874 -0.06428003 -0.04147025 0.02536329 0.12187102
0.12330453 0.13115875 -0.042806257 -0.06201325 -0.12287653 0.11008301 -0.0015717295 -0.16879113

fc2.weight f4 [1, 64]
00000000: 742a 823e 610b db3d 9674 5b3e 96b7 3dbe
00000010: 187a 15be f55d 09be 240a 13be f5b2 d4bd
00000020: 2607 e03d 8597 93bd 532d 763e b201 973d
00000030: 5a06 1cbe 76f3 2c3e 9564 4f3e 9526 4d3e
00000040: 1450 83bd efcd 023e 1571 433e a746 2e3e
00000050: 771e c8bd d0dc dcbd f9eb 0abe 9501 1bbe
00000060: ceac 2abe de5f cc3d d247 7f3d fb9d 1e3e
00000070: 5798 c93d 7750 31be 24a7 4a3e ba18 84be
00000080: 0a28 173e 89a0 0d3e f081 47be 4f54 2cbe
00000090: bd1c 153e dc18 1f3e d21c e6bd f75d 223e
000000a0: bf84 253e d2c2 f9bd c42c 07be f6fe 70be
000000b0: 2096 233e 87c4 9cbd d876 5f3e f616 33be
000000c0: 985d ebbd cbeb 33be b0c9 2abe cdaf 533e
000000d0: deec 6ebe c3b8 31be acca 8bbe 9f5f 093e
000000e0: 7c58 0b3e 4155 013e cd73 2cbe a6d8 1cbe
000000f0: f851 24be 8440 553e 682e 33be 2a47 ffbd
0.25423014 0.1069553 0.21431193 -0.18527064 -0.14597356 -0.13414748 -0.14359337 -0.10385696
0.109388635 -0.072066344 0.24040727 0.0737337 -0.15236798 0.16889748 0.20253213 0.20034249
-0.06411758 0.1277387 0.19086106 0.17019139 -0.09771436 -0.10784304 -0.13566579 -0.15137322
-0.16667482 0.09979223 0.062324353 0.15489952 0.0984351 -0.17315851 0.19790322 -0.25800115
0.14761367 0.1383077 -0.19483161 -0.16829036 0.14561744 0.15536827 -0.11235966 0.15856157
0.1616392 -0.12195362 -0.1320067 -0.2353476 0.15975237 -0.07654672 0.21822679 -0.17489228
-0.11492461 -0.17570417 -0.166785 0.20672531 -0.23332545 -0.17355637 -0.27303064 0.13415383
0.13607973 0.12630178 -0.1684105 -0.1531702 -0.16046894 0.20825392 -0.17498171 -0.12464745

exp_avg f4 [11, 128]
00000000: 2908 7ab7 4576 95b8 d153 60b8 de64 e9b6
00000010: 474d 30b8 d384 b7b8 7621 f836 42c8 f9b7
00000020: 75eb 70b8 4856 4bb8 7d22 9737 7382 3937
00000030: bdf7 be37 5a4d 2f38 2593 3a38 d72d a137
00000040: b8d7 2938 10ac 0eb8 b716 2d38 5cac 4cb8
00000050: c5f8 c8b7 2125 a337 58f0 82b7 e957 0c38
00000060: f31d 9937 8b4d 4037 6579 04b7 319a 15b8
00000070: f2ca 3238 e0f9 abb5 344b 2e38 80f6 1d38
00000080: bd8f 35b8 3764 3d38 4965 8837 87e3 44b7
00000090: 070e 9d38 e9fc d535 50ad ceb7 f840 ae37
000000a0: 103e a736 46e8 36b8 8a14 65b8 429b 8037
000000b0: 0db4 2638 2799 43b8 9655 8db6 95ff 4438
000000c0: 0da8 3038 a00f b937 eaa8 2db7 b0c3 9f37
000000d0: 267e 06b7 f8db 39b8 7ae6 ea37 115a d537
000000e0: b3b0 95b8 189d 5537 c17f 0437 f70a 1bb8
000000f0: 1971 20b6 dff5 70b8 9d20 3b38 b4ee f936
00000100: fd5c 4a37 5717 81b7 63d2 1b35 4fdf 72b7
00000110: 0575 6fb8 f5ba 18b5 12ec 86b8 c83a 9738
00000120: 8828 49b7 80b8 37b8 ce54 4d37 9aed cdb7
00000130: 1eb1 4ab8 aa40 a3b6 1fed 2b37 45c1 f2b7
00000140: 499e 14b8 79a9 9c36 7d28 d7b7 2e0d 5e38
00000150: 9311 ca36 7048 9db8 cc9c 0db6 4947 9fb7
00000160: 8566 d3b7 8b9d e737 ad25 6bb8 b8dc 10b8
00000170: 21bc d2b6 1073 93b7 c521 81b6 679d 5137
00000180: c622 8938 e1d6 00b6 bd2a 69b8 c69f 0a36
00000190: 6e93 fa37 4542 28b8 436f 2db6 4aa0 5d38
000001a0: 9e9b aab8 ca26 2538 7fad 6636 ca46 57b8
000001b0: 0221 2c38 84de 6538 ac25 b2b6 8cf3 44b8
000001c0: 750b 1eb8 77db 0c38 72f4 32b8 8f66 efb7
000001d0: ec74 deb7 c2cf 3c38 4569 0837 914d a5b6
000001e0: abee 7d38 c81d 5ab7 a267 da37 629b 1c38
000001f0: 9a86 12b8 3f7e 4db8 5a4e 80b7 5af3 77b8
00000200: 4015 b937 7b0c d038 ebcc 9238 f708 7635
00000210: 47f7 8938 e569 0b39 0835 6636 573a c737
00000220: cc6c ab38 73f5 8e38 8fc1 21b8 d14c a1b7
00000230: e356 22b8 65e3 adb8 a73c 98b8 0fce e0b7
00000240: fc9e 7ab8 3249 8b38 1d20 74b8 eb04 a738
00000250: 0821 4a38 3cb3 18b8 231e e937 de4c 8eb8
00000260: 8990 eab7 d714 c2b5 7338 8e37 e9bb 6238
00000270: 1896 a6b8 fea9 63b6 4ff8 98b8 c87c 4eb8
00000280: 6946 b138 5c0a 9fb8 fbf3 8fb7 242d d336
00000290: f9cc ecb8 eb4d 55b7 9ebd 2938 0413 1db8
000002a0: 0625 d0b6 10e9 3038 3819 bf38 4b4a 7eb5
000002b0: 2b72 5db8 5b9c a638 4bea 1d37 c09b b2b8
000002c0: 2f92 5ab8 73ff 87b7 a243 1237 c2a6 a5b7
000002d0: e7c3 5eb7 dbea 8f38 483f 50b8 ac64 4ab8
000002e0: 5339 e138 558d 83b6 39fe ccb6 1d67 8738
000002f0: bc15 a5b5 30b1 8e38 2e45 a5b8 1ddd fc34
00000300: e750 67b7 8c5b a037 ef56 2435 1cfa ad37
00000310: bd7d d538 3f4b 78b7 d26f c938 a9a6 e8b8
00000320: 167e 5937 7543 6138 a076 17b7 063a 4438
00000330: 8521 8c38 d4b2 d5b6 2fab 4eb7 22db 2d38
00000340: 6763 2b38 42d0 78b7 1f1b 5438 d5e7 c9b8
00000350: 8132 ecb6 57f2 ee38 db49 1637 ead2 4737
00000360: f3b4 f536 7964 1eb8 f343 a938 3d88 7938
00000370: bc30 b3b6 80cd 5637 258e 94b3 d3c7 b0b7
00000380: cebf c4b8 7670 b637 d840 e538 8b54 92b5
00000390: 3ad5 02b8 c57f 9838 e5e3 61b6 27bf a1b8
000003a0: a7ca 0539 ca9e 6ab8 67c1 88b6 ac2f 8738
000003b0: a076 9fb8 6b4e c3b8 94b6 9535 ae97 9938
000003c0: 67a7 5d38 a505 53b8 c956 8c38 58db 4b38
000003d0: c39c 2738 1182 91b8 3502 ccb6 a305 6535
000003e0: aaf2 b9b8 7a19 8937 ae90 57b8 3c65 8fb8
000003f0: 157e 8938 cdf8 9e38 2dcb 6f37 e1e7 bd38
-1.4903061e-05 -7.126903e-05 -5.3483822e-05 -6.9556836e-06 -4.203364e-05 -8.7508604e-05 7.3948713e-06 -2.9776365e-05
-5.7439745e-05 -4.8479327e-05 1.8016663e-05 1.1057232e-05 2.2765127e-05 4.179529e-05 4.4482895e-05 1.9214041e-05
4.0493644e-05 -3.4015684e-05 4.126757e-05 -4.8797912e-05 -2.39577e-05 1.9448404e-05 -1.5609126e-05 3.3460474e-05
1.8252967e-05 1.1462146e-05 -7.8960775e-06 -3.566797e-05 4.2627515e-05 -1.2813216e-06 4.155487e-05 3.7661288e-05
-4.328763e-05 4.5154444e-05 1.6259628e-05 -1.1735486e-05 7.488956e-05 1.5943343e-06 -2.4637819e-05 2.077267e-05
4.984213e-06 -4.3608503e-05 -5.4616983e-05 1.5331087e-05 3.974517e-05 -4.6634257e-05 -4.212091e-06 4.696807e-05
4.211818e-05 2.2060995e-05 -1.0350932e-05 1.9045401e-05 -8.016394e-06 -4.43123e-05 2.8002298e-05 2.543352e-05
-7.1377865e-05 1.2732366e-05 7.897558e-06 -3.696509e-05 -2.390769e-06 -5.7449444e-05 4.4614648e-05 7.448567e-06
1.2061789e-05 -1.5388867e-05 5.804815e-07 -1.4476317e-05 -5.7091023e-05 -5.689647e-07 -6.4335894e-05 7.21119e-05
-1.19899705e-05 -4.380243e-05 1.2238697e-05 -2.4548546e-05 -4.8325506e-05 -4.8653064e-06 1.0247603e-05 -2.8938646e-05
-3.5433364e-05 4.6688915e-06 -2.5648851e-05 5.29412e-05 6.022115e-06 -7.499836e-05 -2.1101905e-06 -1.8987472e-05
-2.52009e-05 2.7610708e-05 -5.6063454e-05 -3.4537836e-05 -6.280389e-06 -1.7577346e-05 -3.848431e-06 1.2494019e-05
6.539146e-05 -1.9198562e-06 -5.5591332e-05 2.0656603e-06 2.9870975e-05 -4.011604e-05 -2.5843772e-06 5.2839787e-05
-8.135218e-05 3.937519e-05 3.4373659e-06 -5.1325922e-05 4.1038737e-05 5.480509e-05 -5.309199e-06 -4.6956862e-05
-3.7680806e-05 3.3582994e-05 -4.2666165e-05 -2.8538778e-05 -2.6518908e-05 4.5016182e-05 8.130742e-06 -4.926413e-06
6.0542177e-05 -1.3000747e-05 2.6035883e-05 3.733801e-05 -3.493447e-05 -4.8993385e-05 -1.5295274e-05 -5.9116028e-05
2.2063614e-05 9.9205376e-05 6.9999915e-05 9.1655187e-07 6.578728e-05 0.00013295522 3.430354e-06 2.3749815e-05
8.1741804e-05 6.816806e-05 -3.8565657e-05 -1.9228466e-05 -3.870473e-05 -8.2916384e-05 -7.259222e-05 -2.6798834e-05
-5.975271e-05 6.64167e-05 -5.820404e-05 7.9640966e-05 4.8191316e-05 -3.640655e-05 2.7789798e-05 -6.785405e-05
-2.7962278e-05 -1.4460192e-06 1.6954005e-05 5.4057604e-05 -7.943454e-05 -3.3924584e-06 -7.294176e-05 -4.923044e-05
8.4531326e-05 -7.5836404e-05 -1.716054e-05 6.293545e-06 -0.00011291536 -1.2713931e-05 4.0469335e-05 -3.7449427e-05
-6.203193e-06 4.2178726e-05 9.112287e-05 -9.4730484e-07 -5.2796833e-05 7.94462e-05 9.41248e-06 -8.516712e-05
-5.2111394e-05 -1.6212207e-05 8.718025e-06 -1.9747185e-05 -1.3277843e-05 6.8625166e-05 -4.965e-05 -4.825431e-05
0.000107395135 -3.9205574e-06 -6.109269e-06 6.456508e-05 -1.2299784e-06 6.8040914e-05 -7.880699e-05 4.709954e-07
-1.37875095e-05 1.9116116e-05 6.1221266e-07 2.0739673e-05 0.00010180052 -1.47994715e-05 9.605255e-05 -0.00011093665
1.2963565e-05 5.3707005e-05 -9.027921e-06 4.678408e-05 6.681964e-05 -6.368713e-06 -1.2318414e-05 4.1450498e-05
4.0862153e-05 -1.4830441e-05 5.0569997e-05 -9.627609e-05 -7.0392275e-06 0.00011393864 8.9578925e-06 1.1910432e-05
7.3226342e-06 -3.7763708e-05 8.0712045e-05 5.9493108e-05 -5.340289e-06 1.2803241e-05 -6.917643e-08 -2.1073885e-05
-9.381735e-05 2.174846e-05 0.00010931649 -1.0902453e-06 -3.1192998e-05 7.271724e-05 -3.3660265e-06 -7.712683e-05
0.00012759362 -5.593783e-05 -4.075631e-06 6.446181e-05 -7.6038064e-05 -9.312931e-05 1.1154502e-06 7.323861e-05
5.284641e-05 -5.0311577e-05 6.691885e-05 4.860325e-05 3.99619e-05 -6.9383656e-05 -6.0799307e-06 8.531735e-07
-8.866687e-05 1.6343536e-05 -5.1394738e-05 -6.837628e-05 6.556154e-05 7.58037e-05 1.4292816e-05 9.055413e-05

exp_avg_sq f4 [11, 128]
00000000: 487c 3b34 d580 5b36 c3e1 f435 8673 7133
00000010: 6fb7 9335 c7a5 a036 f3b5 3c33 0259 1235
00000020: 752b 0b36 ced8 d135 9532 1f34 1fd8 c733
00000030: d7a8 9134 b27d 9135 4f3f 9b35 ee8c 7034
00000040: 821a 8435 1d30 3235 ecef 9035 9f82 c035
00000050: f4d9 a434 c4fc 5534 704b 2634 fa0b 2535
00000060: 7249 8d34 02d7 d933 1cd7 2a33 3a8f 7335
00000070: 22fd 9f35 46a8 a031 8f74 8535 ecc6 6d35
00000080: 8ddf 9c35 7ea7 9c35 6034 3134 432a fb33
00000090: 5784 6a36 10ec 0430 84d0 c034 d06b 8e34
000000a0: a839 b732 3bac b635 788f f035 d36b 6834
000000b0: ce00 8335 df33 ae35 ef3c 2932 3aee b235
000000c0: 402c 9d35 cf6d b934 cd15 f133 347f 8334
000000d0: c9c6 a533 63c1 9a35 23f6 f234 9ca1 c234
000000e0: ee90 5436 4eba 0834 ec9f 6333 20bc 5435
000000f0: 3875 2f32 9d66 1e36 4a7a 9d35 d7e6 2133
00000100: c353 1a34 a24c 1c34 507f 5d31 e95d 0034
00000110: 19c6 0f36 a36f 9e31 51c7 2f36 94a6 7636
00000120: 04f3 ef33 c1b3 9b35 eb71 ce33 38ea bc34
00000130: f681 bf35 7bd0 4332 fdd1 8033 4173 1435
00000140: 95a0 5d35 acae 5632 7202 da34 e7c2 e235
00000150: 2036 0c33 a3bd 6736 756b 9c30 99fe ae34
00000160: 9f1e 0235 310e 0935 6dc2 0236 91b7 3835
00000170: 1076 1133 7284 7034 96b7 dc32 35df af33
00000180: dd55 3636 1274 3130 1f1f 0136 fb67 ff30
00000190: 1eba 1d35 8195 7a35 93f2 1332 2a7b e135
000001a0: 30d6 8a36 7da7 8635 946c b831 65a8 d335
000001b0: 8ce7 8835 7d33 f235 7fdf 1733 e2de b435
000001c0: 35e9 8935 da4b 4a35 6512 9935 32e3 f334
000001d0: 2dfe e534 b9bf af35 743b fd32 3a64 9332
000001e0: 1ffa 1a36 f284 0e34 848a e634 ada8 5d35
000001f0: 58c0 7035 e472 c035 03f6 3734 7492 0e36
00000200: 4406 0135 158d 4d37 a249 d736 8992 dd30
00000210: c26d b836 acf9 b637 1296 b732 48a1 3535
00000220: 194f 0e37 c981 ce36 7b56 f135 3267 4935
00000230: 3bfb ff35 5681 0437 db97 d936 0c98 7c35
00000240: 9592 9736 e942 bb36 4ee5 9336 789c 0537
00000250: 0c10 4636 2a43 d035 4959 9235 df81 bb36
00000260: 8370 ac35 e948 7731 09a4 f634 0d11 8836
00000270: 770b 0737 a059 9e31 e22d d836 8df4 5136
00000280: b2a6 0937 b008 e936 8f4a b334 3be3 4d33
00000290: 2bb6 8337 9416 4534 a318 1136 272e f835
000002a0: 3751 1833 6989 2f36 0390 2d37 df2c 7d31
000002b0: 0ff0 6b36 d10d 0437 a173 3334 1f5d 1a37
000002c0: 182a 6d36 d83a e934 972e 0834 c758 0b35
000002d0: 5b1e 3834 b8fa c636 559a 3136 0dee 4136
000002e0: 5aac 7237 4ee4 5a33 b10c b233 8aab ae36
000002f0: 1b10 5d31 d796 d336 9f67 0037 f904 7231
00000300: a9d6 b334 959a 0935 6649 b731 7cf0 b134
00000310: 9dac 5e37 0d4d 8334 4074 4237 d96b 8137
00000320: 52f1 9c34 e697 7336 dabf 1634 98c0 3e36
00000330: 81dd b836 e185 d433 d9cf 2c34 9a64 1936
00000340: a405 1d36 4e0c 8734 8e23 3536 a2cc 3f37
00000350: c548 2f33 ff65 8937 8233 f233 29e2 b334
00000360: a951 1b34 6719 fe35 e733 0937 023d 9636
00000370: a680 8f32 ad13 4d34 9b27 ef30 120a 2235
00000380: 73f2 3937 54d3 0b35 b5b7 7b37 b742 6732
00000390: 9515 bd35 a090 db36 3893 2f32 0040 ff36
000003a0: 0b7b a937 8cd1 8736 d527 ba32 5b95 ac36
000003b0: b04a ee36 576d 3737 1288 4d32 87ea dc36
000003c0: 9d6b 7c36 00ed 5636 14c9 be36 df33 4936
000003d0: 4661 e735 04a9 ce36 1bcc 2833 b406 ad30
000003e0: 53d3 2537 4265 f834 c5ea 4a36 91dd b136
000003f0: 5dfd c136 7050 ea36 47aa 8734 6029 2b37
1.7460945e-07 3.2708533e-06 1.8245122e-06 5.6217253e-08 1.100574e-06 4.7876706e-06 4.3937643e-08 5.451876e-07
2.073791e-06 1.5634812e-06 1.482643e-07 9.305972e-08 2.7131202e-07 1.0839924e-06 1.1566825e-06 2.2403012e-07
9.842481e-07 6.638018e-07 1.0798663e-06 1.434313e-06 3.0705962e-07 1.9929126e-07 1.5487399e-07 6.148472e-07
2.6316735e-07 1.01439596e-07 3.977685e-08 9.0732976e-07 1.1920094e-06 4.6757433e-09 9.943195e-07 8.857885e-07
1.1687968e-06 1.1671652e-06 1.6503463e-07 1.1695786e-07 3.494575e-06 4.8356785e-10 3.5914502e-07 2.6528005e-07
2.1330223e-08 1.3610182e-06 1.7923148e-06 2.164591e-07 9.760495e-07 1.2979107e-06 9.850949e-09 1.3331367e-06
1.171029e-06 3.4538832e-07 1.12264026e-07 2.4493204e-07 7.71957e-08 1.1530177e-06 4.52551e-07 3.6252902e-07
3.1674822e-06 1.2733764e-07 5.2998004e-08 7.924991e-07 1.0212993e-08 2.3603563e-06 1.1733002e-06 3.769568e-08
1.437284e-07 1.4556511e-07 3.2232101e-09 1.1955093e-07 2.1423969e-06 4.611097e-09 2.619305e-06 3.6753818e-06
1.1173509e-07 1.1600715e-06 9.613344e-08 3.5188145e-07 1.4268433e-06 1.1397897e-08 5.998661e-08 5.5302013e-07
8.2562593e-07 1.2496155e-08 4.0607443e-07 1.6895036e-06 3.2645517e-08 3.4532065e-06 1.1381035e-09 3.259527e-07
4.8473333e-07 5.105713e-07 1.948468e-06 6.8812466e-07 3.386782e-08 2.2399925e-07 2.5694856e-08 8.189674e-08
2.7170092e-06 6.455717e-10 1.9240613e-06 1.8583245e-09 5.8757894e-07 9.3349814e-07 8.611681e-09 1.6799652e-06
4.137655e-06 1.0032524e-06 5.3674487e-09 1.5769734e-06 1.0200179e-06 1.804539e-06 3.5360696e-08 1.3475913e-06
1.0275168e-06 7.536124e-07 1.1404742e-06 4.5427583e-07 4.283951e-07 1.3094315e-06 2.9480113e-08 1.715863e-08
2.3093378e-06 1.3273146e-07 4.2941622e-07 8.257437e-07 8.9686864e-07 1.4338552e-06 1.7132702e-07 2.1244896e-06
4.806536e-07 1.22518e-05 6.4160713e-06 1.6121514e-09 5.496405e-06 2.1812353e-05 2.1372248e-08 6.766245e-07
8.482276e-06 6.1543874e-06 1.7981068e-06 7.5028504e-07 1.9072098e-06 7.8979265e-06 6.4847823e-06 9.4098573e-07
4.517215e-06 5.5808237e-06 4.407636e-06 7.9638485e-06 2.951364e-06 1.5516755e-06 1.0903833e-06 5.5881533e-06
1.2847744e-06 3.5984675e-09 4.5940422e-07 4.055101e-06 8.049296e-06 4.6085944e-09 6.442643e-06 3.1285774e-06
8.204648e-06 6.9449525e-06 3.3395597e-07 4.7936947e-08 1.5701246e-05 1.8355269e-07 2.1621024e-06 1.8490872e-06
3.5464122e-08 2.6157015e-06 1.0345134e-05 3.6841852e-09 3.5157461e-06 7.87103e-06 1.671274e-07 9.200797e-06
3.5340254e-06 4.3442446e-07 1.2682936e-07 5.1910723e-07 1.7147379e-07 5.9300473e-06 2.6464888e-06 2.8897805e-06
1.4464453e-05 5.0964722e-08 8.2910795e-08 5.205574e-06 3.2168888e-09 6.30585e-06 7.653521e-06 3.5218461e-09
3.3497534e-07 5.1261424e-07 5.3343454e-09 3.3143795e-07 1.3272421e-05 2.4456713e-07 1.1590368e-05 1.5428219e-05
2.9232848e-07 3.6298238e-06 1.4039634e-07 2.842431e-06 5.5094138e-06 9.896372e-08 1.6094363e-07 2.2857334e-06
2.3398106e-06 2.5154662e-07 2.6991797e-06 1.1432132e-05 4.0811546e-08 1.6379168e-05 1.12783724e-07 3.35059e-07
1.4465208e-07 1.8931868e-06 8.177921e-06 4.4774506e-06 1.6705894e-08 1.9099271e-07 1.7400795e-09 6.0364357e-07
1.1083309e-05 5.208906e-07 1.50035385e-05 1.3461139e-08 1.4087879e-06 6.543545e-06 1.0219814e-08 7.607043e-06
2.0203666e-05 4.047708e-06 2.1671363e-08 5.1433867e-06 7.1016475e-06 1.0933108e-05 1.1963509e-08 6.5838135e-06
3.7613565e-06 3.2026437e-06 5.68585e-06 2.9981527e-06 1.7239151e-06 6.1589544e-06 3.930118e-08 1.2589312e-09
9.883969e-06 4.6267274e-07 3.0237e-06 5.300805e-06 5.7813436e-06 6.9831076e-06 2.5269603e-07 1.0202028e-05

exp_avg f4 [64, 128]
00000000: 5f18 43b9 3bf0 a4b8 f909 7238 968b 60b9
00000010: 6882 b1b8 d864 2c39 37d8 8038 7fc7 88b8
00000020: 9b07 2639 84fa d738 dbbc 56b9 82ef 7836
00000030: 5f56 b8b9 901f 2839 484e 47b9 807a 09b9
00000040: 4c95 7fb9 8189 32b8 d80a ffb9 6295 c838
00000050: 6d6f 8339 a691 5d39 955c 52b8 6e82 79b9
00000060: c61b 0ab8 46cd d4b8 c9cb 8139 3386 4d38
00000070: f9d8 1b39 0576 e438 f97c 26b9 d9fc 03ba
00000080: d9b7 47b9 ff11 53b9 5966 3f39 9d0d 1cb9
00000090: 8d0a 30b8 9f0a d738 6d8c 4539 b390 6db9
000000a0: f3ef a939 a80b fdb7 6f6a 853a f0a7 3339
000000b0: 3b31 86b9 3df3 b639 d2bf 2b39 e4f2 dfb9
000000c0: ab0a 4738 ba45 6137 92af 9439 918f dbb8
000000d0: e72e be38 3daf 8739 0daf 0437 112e a538
000000e0: bfd2 8639 bb84 61b8 5846 7bb8 84b9 3c39
000000f0: 6153 3b38 020b 3138 150b d9b7 994e 4839
00000100: 1013 8137 db4d 0d3a e065 54b9 c84a 55b9
00000110: 4586 5839 b55b c037 4e2d 533a 6c02 b2b7
00000120: 5773 e3b8 fc6c 9539 432d c1b9 a3bc 08b7
00000130: 2dfd 5c38 e80a 6ab9 7e9a ae38 ba54 2539
00000140: a68f 213a dad0 ed38 6564 25b9 2101 18b9
00000150: 4e26 c938 bc36 3939 bacb cc37 8ed1 6e39
00000160: 0b27 fc37 c49f 2db9 db97 9439 bf7b af39
00000170: 5587 f8b6 c9b2 acb6 f259 9fb9 463f 2bb8
00000180: d6f6 06ba fdd9 2139 e760 d238 d838 36b9
00000190: 2cac 6cb9 1f12 8a39 7646 12b9 a25c 27ba
000001a0: 977a d439 54ac 80b9 c59b d8b7 51db 07b9
000001b0: fda1 0db9 b25d b7b9 ee7e f638 2b7f 1db9
000001c0: 2e0b 8db7 ff51 87b9 1f86 bcb8 34fc 8238
000001d0: 13f0 50b8 47b6 51b9 df05 65b8 d62d 49b9
000001e0: ed5a d6b9 04c3 6138 91a1 1239 f47b bf39
000001f0: fcaa 8c38 5118 ab39 b2f6 5bb9 6a71 8338
00000200: fbd7 23ba 1d3b b937 dec2 1b3a 80a3 efb9
00000210: 6cc9 50b9 a2bf dd39 52b0 2137 6106 83b9
00000220: ebb0 483a d9ff 2539 8b35 1aba 3e70 eab7
00000230: 11ce 99ba 1ad5 0e3a 85b1 8bba 84e3 38ba
00000240: a9a0 0eba 2bb2 0a38 7664 d5ba 69c2 cf39
00000250: f66d 7f3a 8088 133a eb6d 6339 4a8f 46ba
00000260: 776e 1fb9 1479 a7b9 65b9 363a 0661 9739
00000270: da40 f739 bf27 6a39 b97b 16ba b470 bdba
00000280: 2bc7 60b9 acc1 33ba b035 ff39 df1d 30ba
00000290: 301a 1fb9 bea6 a738 b592 3b3a 62cc 5eba
000002a0: ef2d 4b3a 8b05 b838 b7bd 5a3b f939 233a
000002b0: 2cea 89ba 098a 983a 7503 063a 1b29 b8ba
000002c0: af98 89b9 a941 3739 e6be 1f3a fa6b f3b9
000002d0: d351 6739 e515 8b3a 5da9 d6b8 6a2b 0239
000002e0: bed3 4d3a c96b 01b9 73da b7b9 39fc fb38
000002f0: b4d6 c738 91d9 8ab9 7653 09ba 6e21 243a
00000300: b2b3 1139 a0d6 ae3a ac93 11ba 8063 bab9
00000310: 373b b139 cbe5 5d38 85f1 393b 158e 50b8
00000320: 7e33 a2b8 51fb 343a 9c38 82ba 5de6 3137
00000330: dbe2 033a c170 91ba a798 ad38 af1f 3d3a
00000340: d177 fd3a 3cf6 b639 3792 3dba 4205 32ba
00000350: 9f21 5eb8 1ffc 333a 59d4 2638 243f 2d3a
00000360: 4517 fb38 34d3 1dba 001e 6c3a 779b 553a
00000370: 2c8c 9cb9 fc62 0bb9 7d4c 3eba a56d a938
00000380: 9379 f1ba d87c 1d3a 1edb 6f39 2ccd 77b9
00000390: 3e70 79ba 475c a13a 36ed a7b9 9494 dcba
000003a0: 4efa a63a b668 39ba 22e1 92b9 888b f8b7
000003b0: 1eea f7b9 5517 a1ba 30d1 a438 bc62 a9b9
000003c0: 0006 7838 4207 6dba a28f 85b8 cbe6 2239
000003d0: 79d6 57b9 19fc 3dba 23e7 acb8 6720 09ba
000003e0: b5b1 d5ba 0e3f 2639 979f 5a39 a3be 883a
000003f0: 7752 2839 e22b ad3a 0acd eeb9 fc6a d739
-0.00018605728 -7.864876e-05 5.7706584e-05 -0.00021414305 -8.464308e-05 0.00016440765 6.143789e-05 -6.5221444e-05
0.00015833827 0.00010298661 -0.00020478985 3.7094292e-06 -0.00035159566 0.00016033486 -0.00019007281 -0.00013110973
-0.00024374312 -4.2566568e-05 -0.0004864547 9.564568e-05 0.00025069286 0.0002113046 -5.0154125e-05 -0.0002379508
-3.292763e-05 -0.00010147183 0.0002475663 4.900079e-05 0.0001486278 0.0001089387 -0.0001587755 -0.00050349307
-0.00019046607 -0.00020129232 0.00018253307 -0.0001488239 -4.1971496e-05 0.00010253977 0.00018839697 -0.00022655986
0.00032412968 -3.0165378e-05 0.0010178814 0.00017133332 -0.0002559515 0.00034894972 0.0001637929 -0.00042714842
4.7455233e-05 1.342728e-05 0.0002835957 -0.00010469475 9.068642e-05 0.0002587977 7.90857e-06 7.876394e-05
0.0002571549 -5.3767795e-05 -5.9908576e-05 0.00017998187 4.4661927e-05 4.221034e-05 -2.5873576e-05 0.00019102766
1.5386875e-05 0.00053903245 -0.00020255847 -0.00020341121 0.00020649385 2.2930888e-05 0.0008055762 -2.1220381e-05
-0.00010845687 0.00028500694 -0.0003684555 -8.150152e-06 5.2687876e-05 -0.00022320042 8.325743e-05 0.0001576719
0.0006163068 0.00011339942 -0.00015773026 -0.0001449627 9.591562e-05 0.00017663365 2.4413563e-05 0.00022775514
3.0058922e-05 -0.00016558083 0.000283419 0.000334708 -7.4067307e-06 -5.146813e-06 -0.00030393858 -4.0828505e-05
-0.0005148476 0.00015435363 0.0001003163 -0.00017378049 -0.00022570853 0.00026334912 -0.00013949894 -0.0006384348
0.00040527128 -0.00024542457 -2.5821742e-05 -0.00012956305 -0.00013507153 -0.00034974288 0.000117538366 -0.0001502006
-1.6813716e-05 -0.00025810298 -8.9895206e-05 6.2458595e-05 -4.981465e-05 -0.00019999697 -5.4603322e-05 -0.00019185929
-0.00040885006 5.3825803e-05 0.00013983833 0.0003652271 6.7075685e-05 0.0003263378 -0.00020977369 6.267692e-05
-0.000625014 2.2081245e-05 0.0005941818 -0.0004570745 -0.00019911461 0.00042295182 9.637401e-06 -0.0002499102
0.00076557574 0.00015830937 -0.00058826123 -2.794724e-05 -0.0011734386 0.0005448625 -0.0010657763 -0.00070529454
-0.00054408103 3.3067696e-05 -0.001628055 0.00039626964 0.00097438635 0.0005627945 0.00021689355 -0.00075744523
-0.00015204573 -0.00031942932 0.0006970375 0.00028873252 0.0004715983 0.00022330786 -0.0005740482 -0.0014453144
-0.000214365 -0.00068571675 0.0004867739 -0.00067183183 -0.00015173177 7.994239e-05 0.0007155345 -0.00084990833
0.000775068 8.774836e-05 0.003337724 0.0006226595 -0.0010522059 0.0011637817 0.00051122095 -0.0014050336
-0.00026244434 0.000174767 0.0006093815 -0.0004642902 0.00022060359 0.0010611383 -0.000102358616 0.00012413939
0.00078516814 -0.00012342552 -0.00035067237 0.00012015593 9.529051e-05 -0.0002648351 -0.0005238572 0.0006261085
0.0001389522 0.001333911 -0.0005553316 -0.00035550818 0.0003380419 5.2904517e-05 0.0028372717 -4.972339e-05
-7.734353e-05 0.0006903904 -0.0009935084 1.0603658e-05 0.00050310575 -0.0011096225 8.2777166e-05 0.0007214499
0.0019338076 0.00034897204 -0.00072315655 -0.00067909446 -5.2960237e-05 0.0006865877 3.977525e-05 0.0006608835
0.00011972947 -0.00060205464 0.0009007156 0.0008148471 -0.00029859075 -0.00013292948 -0.00072593224 8.078971e-05
-0.0018423073 0.0006007678 0.00022874444 -0.00023632188 -0.00095153216 0.0012310826 -0.00032029458 -0.0016828948
0.0012739392 -0.0007072793 -0.00028015027 -2.9628878e-05 -0.00047285942 -0.0012290279 7.8590936e-05 -0.00032307755
5.9133396e-05 -0.0009041914 -6.368688e-05 0.00015535501 -0.00020583895 -0.00072473433 -8.244652e-05 -0.00052309636
-0.0016303571 0.00015854483 0.00020849552 0.0010432791 0.00016052449 0.0013211931 -0.00045547663 0.00041087705

exp_avg_sq f4 [64, 128]
00000000: 170d a637 9f5c 7236 9517 f935 49c0 0d37
00000010: 372d ce34 4070 0238 3576 0f36 5433 a735
00000020: c626 7436 6fd8 6537 2f80 bb37 fca4 bb34
00000030: 4b6f be37 ae9f a336 f340 da37 fee3 d235
00000040: dc19 2537 89fe 2f35 88bf 1338 8b72 fd34
00000050: 1d5f 1237 a3f5 4e36 4338 a335 5dae 0638
00000060: 7155 5b35 7de3 5835 4d6a 2337 5605 2935
00000070: caee 8135 6082 4335 b62d 1236 e4cf 6038
00000080: c5cd 0d37 07ec a237 c839 1b36 f71f 0435
00000090: 24ad 0a37 4768 7437 5ffe c136 64e1 5136
000000a0: 3ed4 4837 6c02 f834 9de7 9d39 836a 7435
000000b0: 2355 9937 1385 d837 4a20 5f37 369e d937
000000c0: 0313 0235 ea7b 6d36 a40a 6e36 6e4a da35
000000d0: a535 d534 bdc8 dd37 008c c233 1522 e734
000000e0: 8c63 8037 f9b5 1535 2e86 7636 128b 2d37
000000f0: eac1 4735 f77c fe36 0751 b734 cd29 4b36
00000100: fa86 2036 e1d6 9538 5c98 4e36 77be 0f37
00000110: 85ec b636 b842 9a34 d52e be38 bbd1 6a34
00000120: 8bf9 5136 59ec 9037 78e4 e537 c8c3 0f37
00000130: eca0 4f36 4b5e 0536 73e8 2936 512e 3d36
00000140: 96c6 0939 da0e 2435 0198 d135 d593 1237
00000150: 49bd ba36 08db 7337 015f 2534 cea8 a936
00000160: 1cee a835 0678 ea36 ada4 9437 676e 2138
00000170: 0218 0c36 7978 1036 8893 1937 e8ad 1936
00000180: 6f32 5538 4230 4935 8569 d136 c0e6 8c37
00000190: bc5f 8237 3fce bb37 d4f8 4f36 b08c 3e38
000001a0: a5d4 e037 44bf a836 2074 9136 1a7b 0735
000001b0: 75a6 6a36 4792 0b38 7bc2 b936 193e 5935
000001c0: b231 eb34 ca74 2037 9b32 9235 b2b4 d036
000001d0: 2d7d c935 653b 4937 842c 6f35 1304 4636
000001e0: 68f3 9d38 fc66 b835 19b1 2737 d8ea e436
000001f0: 6c78 c435 b544 ee37 2028 ad36 3bc0 cb34
00000200: b231 1139 919d 3b37 14f6 3639 7455 c837
00000210: 2d27 dd36 619f bb39 3128 1436 bb36 8837
00000220: ba3a d938 c2e9 7f38 26ae 6339 5b8c e036
00000230: 3171 9239 d25f cc37 00ca 1b3a 72ec 6e38
00000240: 7ad8 1038 f96a 8e37 0fbd ba39 a472 1638
00000250: c38d 1d39 5b38 6f37 3da2 d237 9bd8 bd39
00000260: 1ec3 0237 1ea9 8b36 75d2 9f38 f3cd 8437
00000270: 8ee7 0937 5172 9136 a21f 6238 3929 b839
00000280: 2f23 0337 c031 8a39 2f75 fe36 26cf 8637
00000290: 81ba 9c38 5f49 6737 7f2a 8838 34f5 0d39
000002a0: 1919 2e37 ac35 7c36 ae2d 593b 742e 4e37
000002b0: 3edd ab39 852d 9e39 42b5 7c38 52ca 7339
000002c0: 9f0f 0339 add1 d237 e701 a237 6aef 1c38
000002d0: 2369 1236 a33d f239 bedb 0c35 a928 0037
000002e0: 92c3 8939 4491 4e37 bd14 8e37 0bdb 2a38
000002f0: 3c15 9136 f94a ea36 b768 f538 147c d537
00000300: 838e 2b37 2617 c739 22ad 7237 1cc7 0e37
00000310: 654d 2437 b070 2036 ed52 9e3a 41f9 6737
00000320: d14a 0c37 7223 3039 559e b438 c07b 8e38
00000330: 7279 6039 a5f2 1b38 a978 fa36 e61f ca38
00000340: 8b5d 993a 4baf 8136 ea97 ea37 817e d138
00000350: 6358 d636 1f01 8639 36ba 7a36 c863 b637
00000360: 7a29 0d38 1cfa 0f39 f267 6839 33d7 8939
00000370: d261 0737 266d 9e36 bb36 af37 693c 0d37
00000380: 1e84 283a 3de8 0637 02f2 ae37 5325 0d38
00000390: 3164 5039 b8e3 1d3a 4acc f836 3778 6139
000003a0: d848 7039 37ae 5138 75fd c837 0aac ab38
000003b0: f384 1638 6e49 9d39 bd8d b436 7137 7038
000003c0: 96fc 0b37 171e 9b38 f31d 2338 f440 1939
000003d0: b405 bf37 2ecb f538 5824 2737 ca08 3b37
000003e0: 3c7b 873a 0056 e036 6c22 7438 bba1 ae37
000003f0: b185 8437 673e f039 764d dc36 5101 9537
1.9794837e-05 3.6114723e-06 1.8558809e-06 8.449025e-06 3.8403388e-07 3.1098956e-05 2.1377466e-06 1.2457408e-06
3.6381402e-06 1.3699856e-05 2.2351827e-05 3.4951506e-07 2.270159e-05 4.8763677e-06 2.601787e-05 1.5712574e-06
9.840787e-06 6.556298e-07 3.522591e-05 4.7208263e-07 8.724423e-06 3.0839371e-06 1.2160821e-06 3.2110478e-05
8.170819e-07 8.079731e-07 9.740307e-06 6.296517e-07 9.680746e-07 7.283288e-07 2.1782303e-06 5.3599375e-05
8.452164e-06 1.9421814e-05 2.3130433e-06 4.9220347e-07 8.265753e-06 1.4567812e-05 5.781461e-06 3.1274622e-06
1.1970345e-05 4.6195362e-07 0.0003011794 9.105208e-07 1.8278666e-05 2.5811174e-05 1.3299354e-05 2.5942089e-05
4.845644e-07 3.538788e-06 3.5470957e-06 1.6263928e-06 3.9713373e-07 2.6438729e-05 9.059295e-08 4.30519e-07
1.5305144e-05 5.577163e-07 3.673496e-06 1.0343983e-05 7.441546e-07 7.5843377e-06 3.414536e-07 3.0273688e-06
2.3920425e-06 7.144898e-05 3.0785077e-06 8.56781e-06 5.451557e-06 2.873328e-07 9.068629e-05 2.1869248e-07
3.128868e-06 1.7276196e-05 2.7405316e-05 8.569048e-06 3.0939073e-06 1.987343e-06 2.5318266e-06 2.8190154e-06
0.00013139317 6.111637e-07 1.5615952e-06 8.736698e-06 5.5652677e-06 1.4534926e-05 1.5401385e-07 5.056244e-06
1.2586274e-06 6.987716e-06 1.7719658e-05 3.848821e-05 2.08756e-06 2.1527796e-06 9.15386e-06 2.2900003e-06
5.0830127e-05 7.494856e-07 6.2409695e-06 1.6796752e-05 1.5541787e-05 2.2388178e-05 3.099024e-06 4.5430555e-05
2.6801901e-05 5.0290564e-06 4.3348555e-06 5.0470555e-07 3.4965608e-06 3.3276414e-05 5.53607e-06 8.0929163e-07
4.380832e-07 9.563935e-06 1.0892576e-06 6.2199188e-06 1.5012098e-06 1.19943625e-05 8.9099217e-07 2.950667e-06
7.531681e-05 1.3739041e-06 9.995209e-06 6.822269e-06 1.4638185e-06 2.8403805e-05 5.160473e-06 3.7951563e-07
0.0001384679 1.1182755e-05 0.00017448544 2.388165e-05 6.590874e-06 0.00035786166 2.2077113e-06 1.623795e-05
0.00010358305 6.101444e-05 0.00021713282 6.6920597e-06 0.00027931624 2.4363315e-05 0.0005942881 5.696383e-05
3.4533885e-05 1.6977532e-05 0.00035617544 3.5869554e-05 0.00015025497 1.4258631e-05 2.5109499e-05 0.00036210273
7.794033e-06 4.1622106e-06 7.6209115e-05 1.5831529e-05 8.219749e-06 4.334645e-06 5.391206e-05 0.00035125928
7.8164e-06 0.00026358478 7.583432e-06 1.6070506e-05 7.473399e-05 1.3785756e-05 6.492901e-05 0.00013538153
1.0377052e-05 3.7582167e-06 0.00331388 1.22893725e-05 0.000327805 0.00030170023 6.025029e-05 0.00023249656
0.00012498953 2.5131589e-05 1.931279e-05 3.741627e-05 2.1816893e-06 0.0004620376 5.247383e-07 7.6388615e-06
0.00026276388 1.2312379e-05 1.6937376e-05 4.0735158e-05 4.3238088e-06 6.9824714e-06 0.00011702015 2.5449357e-05
1.0225575e-05 0.00037973485 1.4464635e-05 8.510218e-06 9.793182e-06 2.390745e-06 0.0012079157 1.3826707e-05
8.36207e-06 0.00016797872 8.6125605e-05 6.794138e-05 0.00021407547 3.718086e-05 7.4646273e-06 9.638052e-05
0.0011700852 3.8649064e-06 2.7965714e-05 9.98946e-05 6.3879866e-06 0.00025559307 3.7361292e-06 2.1742555e-05
3.3655648e-05 0.00013730716 0.00022163967 0.00026291012 8.069403e-06 4.7214735e-06 2.0887112e-05 8.41832e-06
0.00064283784 8.041095e-06 2.085511e-05 3.365178e-05 0.0001987375 0.00060230074 7.4147583e-06 0.00021502456
0.0002291532 4.9991733e-05 2.3959883e-05 8.18596e-05 3.5886605e-05 0.00030000083 5.3809185e-06 5.7272093e-05
8.343855e-06 7.3965806e-05 3.889012e-05 0.00014615414 2.277163e-05 0.000117203555 9.962438e-06 1.1148115e-05
0.0010336409 6.685732e-06 5.820619e-05 2.0817728e-05 1.5797881e-05 0.0004582286 6.5655286e-06 1.7762797e-05

exp_avg f4 [64]
00000000: 2e73 1dba 0a30 0cbb fc26 c1b9 d5bc f038
00000010: d3b2 5e39 34b6 0f3b 2a9b 223b 149c 6d3a
00000020: 9a51 eaba a6bc 2f3b a864 89ba 4f97 0aba
00000030: 8bb6 f238 78d4 12ba 7466 b8bb cd36 3db9
00000040: d3ae 973b 17c8 01bb 7552 08bc 5177 0eba
00000050: 69f2 d839 b604 a339 2bc5 c73b b530 da3b
00000060: caf6 ef39 f767 dcba af95 bcba 6e47 43bc
00000070: 51e7 cbb9 a28a cc3a 6eb7 a6ba 5b66 363a
00000080: 2015 8cba d6d4 e8bb 98b4 1a3b 8198 5239
00000090: 325e 88b8 2f87 afb9 277a 9c3b c454 a8b9
000000a0: 55b9 2bb8 2dae ec3a b07a 4f3c 0b2d 763a
000000b0: f5dc 98ba c4a0 4f3b c3ea 88ba af06 a938
000000c0: 6db4 103b 6a65 da39 3e78 9e3b 056b 6cb9
000000d0: be40 8e38 6933 f43a 04f9 b738 a654 89bb
000000e0: 8b01 3abb b9a2 32bb 41bc 093a 31ec 463b
000000f0: db97 a83b dba4 10bc f0a9 2e37 a240 173b
-0.0006006238 -0.0021390938 -0.00036840874 0.000114792645 0.00021238187 0.002192867 0.0024811723 0.000906409
-0.0017877102 0.0026815324 -0.0010482268 -0.0005286829 0.000115734605 -0.00056011183 -0.0056274477 -0.0001804486
0.004628995 -0.00198031 -0.008320441 -0.00054346496 0.0004137934 0.00031093293 0.0060965023 0.0066586384
0.00045769505 -0.0016815652 -0.0014387871 -0.011918886 -0.0003889152 0.0015605281 -0.0012719461 0.0006958001
-0.0010687448 -0.00710545 0.0023606177 0.00020083973 -6.5025306e-05 -0.0003347932 0.004775304 -0.00032106612
-4.094218e-05 0.001805728 0.012663528 0.0009390867 -0.001166253 0.0031681517 -0.0010445941 8.059793e-05
0.0022080198 0.0004165576 0.0048361113 -0.00022546582 6.783147e-05 0.0018631044 8.772503e-05 -0.004190999
-0.0028382267 -0.0027257635 0.0005254187 0.0030353183 0.0051450557 -0.008828367 1.0410775e-05 0.0023079296

exp_avg_sq f4 [64]
00000000: e59d cd38 30cb b83a 560c 7238 26ae 1337
00000010: e0f3 b537 8050 c63a 10ab fa3a e965 7439
00000020: 24d2 843a e3d3 093b fa4b 9c39 eed1 bb38
00000030: 2c9f d936 74d8 1439 4ba7 1e3c 5605 4937
00000040: e5d3 013c 5bb2 9e3a 45b2 993c 2780 0239
00000050: 4e95 4c38 a3a3 ea37 8ab0 323c 6032 6d3c
00000060: ef22 bd38 9b7a 673a f457 243a 45c5 2d3d
00000070: 4cad 7f38 cf26 303a 1562 ed39 8b9d 1b39
00000080: 91fb b739 1e60 793c 2565 273b e432 a737
00000090: 28a6 f135 333f 6138 d993 c23b 993e 3038
000000a0: d165 4735 183b 6a3a 10c2 273d 92e5 a239
000000b0: 8f1b 013a 49a7 413b a923 063a ef83 5836
000000c0: ba41 b13a dc3d 8f38 ed6e e93b 185a ca37
000000d0: 00f3 4636 b022 cf3a ec02 8836 3216 ab3b
000000e0: cf9f 153b 6ffb 083b bb28 f138 4901 833b
000000f0: 2e0e 303c 363c ba3c ee4e c933 2078 dc3a
9.804572e-05 0.001409864 5.7708785e-05 8.80243e-06 2.1690445e-05 0.0015130192 0.0019124467 0.00023307618
0.0010133428 0.0021030835 0.00029811246 8.955957e-05 6.485634e-06 0.00014195015 0.00968344 1.1981776e-05
0.007924055 0.0012107597 0.018761763 0.00012445507 4.877644e-05 2.7971173e-05 0.010906348 0.014477342
9.018729e-05 0.00088302203 0.00062692096 0.04242446 6.0958133e-05 0.000671965 0.0004527724 0.00014840641
0.00035091912 0.01522067 0.0025542465 1.993165e-05 1.8004257e-06 5.370304e-05 0.005938035 4.201997e-05
7.428144e-07 0.0008935197 0.040956557 0.0003107009 0.0004925066 0.0029549173 0.0005117008 3.2263304e-06
0.0013523616 6.8302936e-05 0.007123819 2.412223e-05 2.9645744e-06 0.0015803184 4.053456e-06 0.0052211517
0.002283085 0.002090182 0.00011499362 0.003997956 0.010745568 0.022733789 9.374149e-08 0.0016820468

exp_avg f4 [1, 64]
00000000: c3fe 90be e698 4cbd 37ee 8ebc fcc7 b2bd
00000010: d2ef 9bbd bdd3 a33e 1fab 523d 57e3 ba3e
00000020: 3e9c e2bc 8931 aa3e c07a 90be 5651 68bd
00000030: f5cd ddbd 098e 56be 5da2 a0be aefd 66be
00000040: 8d4e 8b3e 5128 e6bc f755 5abd ade7 88bc
00000050: bba0 af3e 08fa af3e ac58 123d 73a2 cabd
00000060: dce2 713e 7684 53bd a951 aebe 96f1 db3c
00000070: ef87 40b8 35e4 9f3e c091 a0be cbb7 773e
00000080: a291 573d ccb7 8ebe 385b 0dbd 924e acbd
00000090: 1878 92be 7c37 f33c c038 b13e 2087 9ebe
000000a0: 20e1 81be 4540 b93e 2d8e 58bb 3b59 833e
000000b0: 01e8 153c 6ce8 a83e ade2 603a 2414 a3bd
000000c0: 5ea9 ab3e 1170 20bd 7c6e 383d 277c 76be
000000d0: 5bde 193e db9f 903e 9790 803e de3c 103c
000000e0: 9e92 b7be 10e1 86bd 67a8 f7bb 3daa 05bd
000000f0: bca6 abbc 16c0 8dbe f6a0 0abe 6b56 d93c
-0.28319368 -0.049950503 -0.017447574 -0.0872955 -0.076141015 0.3199748 0.051432725 0.36501572
-0.027662393 0.33240917 -0.2821865 -0.056718193 -0.10830299 -0.2095262 -0.31373873 -0.22557709
0.27208367 -0.028095396 -0.05330464 -0.016712034 0.34302315 0.34370446 0.035729095 -0.09894266
0.23621696 -0.051639996 -0.34046677 0.026848596 -4.5902965e-05 0.31228796 -0.31361198 0.24191205
0.05262912 -0.278746 -0.03451082 -0.084134236 -0.2860725 0.029689543 0.3461361 -0.30962467
-0.2536707 0.36181846 -0.0033043728 0.25654015 0.009149552 0.32989824 0.0008578699 -0.07962826
0.33527654 -0.039169375 0.04502724 -0.24070798 0.15026228 0.2824696 0.25110313 0.008803574
-0.35854048 -0.06585896 -0.007557917 -0.032633055 -0.020953529 -0.27685612 -0.13537964 0.026530465

exp_avg_sq f4 [1, 64]
00000000: 2617 d340 007c 2642 006c d641 76d3 a141
00000010: f31e a341 b269 d740 4da6 2742 30d5 dd40
00000020: 004a 0542 adda fe40 42aa d340 330d 2c42
00000030: 7a00 7141 ab86 cf40 301c d240 d915 0341
00000040: f925 c640 1fa7 0542 827c f641 695f d541
00000050: 2e29 c740 f14b c740 1a9b 1b42 826e 8b41
00000060: 55f8 cf40 04d4 2742 6f87 0541 b046 b141
00000070: 53f4 0842 22e2 c640 0d16 c740 a6a1 d040
00000080: f813 a041 a4ff c440 6874 ce41 dea4 a241
00000090: 26f9 d140 feaa d541 0267 cf40 233e c540
000000a0: b431 0241 37f5 da40 0fa7 0442 bbe8 d340
000000b0: a3e1 9e41 bc19 fb40 8fdf 0842 745c 7041
000000c0: 231b c640 1974 6d41 4883 2242 6df3 c240
000000d0: 8f36 0141 04a9 d340 1cb2 cc40 a760 ff41
000000e0: d201 d840 f242 0342 3db1 a141 c919 ca41
000000f0: 9a3b f941 bb24 cc40 6c56 0041 197d 0442
6.5965757 41.621094 26.802734 20.228252 20.390112 6.7316523 41.912403 6.932274
33.322266 7.964194 6.6145334 43.01289 15.062616 6.485189 6.565941 8.192834
6.1921353 33.413204 30.810795 26.671587 6.223777 6.22802 38.901466 17.428959
6.499064 41.957047 8.345565 22.159515 34.238598 6.215104 6.2214417 6.5197325
20.00975 6.156206 25.806839 20.330502 6.5616636 26.708492 6.481324 6.163835
8.137135 6.8424335 33.163143 6.6221595 19.860174 7.8468914 34.21832 15.022572
6.1908126 14.840844 40.628204 6.092215 8.07582 6.614382 6.396742 31.922194
6.750222 32.815376 20.211542 25.26259 31.154102 6.3794837 8.021099 33.122166
